models/NN_model.pth (torch, 722036 bytes, 18 tensors)

embd.weight f4 [127, 50]
0	0x3d8d09cf	0.068866365
1	0xbf5d8fd8	-0.86547613
2	0xbf26aeae	-0.6511029
3	0xbf26e91a	-0.65199435
4	0xbf264f59	-0.64964825
5	0xbf55de8e	-0.83542717
6	0x3f7518ea	0.9574114
7	0xbd34a73f	-0.04410481
8	0xbf36269c	-0.71152663
9	0x3ed33b9c	0.41256416
10	0x3f2bdeac	0.67136645
11	0x3de77f5b	0.11303588
12	0x3db58c21	0.08864618
13	0x3f8c9f5f	1.0986136
14	0xbfd413e9	-1.6568576
15	0x3f24fbd6	0.6444677
16	0x3ef99956	0.487498
17	0xbfbab410	-1.4586201
18	0xbf19130f	-0.59794706
19	0x3ecebf47	0.40380308
20	0xbf84b3e0	-1.0367393
21	0xbf9e9985	-1.23906
22	0x3f21a29b	0.6313874
23	0x3f9f2c64	1.2435422
24	0xbe8cb4bc	-0.2748164
25	0xbfa5cebf	-1.2953719
26	0xbffaf6e7	-1.9606599
27	0xbee06e4d	-0.43834153
28	0xbe265bf3	-0.16246013
29	0xbfa8e207	-1.3193978
30	0xbd8b47c0	-0.068007946
31	0xbf026d93	-0.50948447
32	0x3f82ee95	1.022906
33	0xbea399bf	-0.31953236
34	0xbfac17b8	-1.3444738
35	0xbda46d41	-0.08028651
36	0xbfab8cc6	-1.3402336
37	0x3f5abc66	0.85443723
38	0x3d664895	0.056221563
39	0x3e98b5b7	0.29826137
40	0xbf35b4b2	-0.70978844
41	0xbfae49b1	-1.3616239
42	0x3fe69823	1.8015178
43	0x399069b5	0.00027544578
44	0x4015967f	2.3373106
45	0xbf3ea871	-0.7447577
46	0x3f9cfc08	1.2264414
47	0x3eaec531	0.3413482
48	0xbfb208f8	-1.3908987
49	0x3f73824b	0.95120686
50	0x3f2c1163	0.6721403
51	0x3e6b5bb4	0.229842
52	0xbd91e6ce	-0.071241006
53	0x3fcbdecc	1.5927367
54	0x3fae3dba	1.3612587
55	0xbf8ce1c1	-1.1006395
56	0xbf54233a	-0.8286625
57	0x3f831005	1.0239264
58	0xbed30ff5	-0.41223112
59	0xbc7bd511	-0.015370623
60	0x3f413895	0.7547696
61	0xbe615a9b	-0.2200722
62	0x3ea51fdc	0.3225087
63	0xbf74ee65	-0.9567626
64	0xbed42141	-0.4143162
65	0x3f5d729d	0.8650301
66	0xbebae7b1	-0.36504892
67	0x3fd77bb8	1.6834631
68	0x3e969b0e	0.29415172
69	0x3f82e24f	1.0225314
70	0xbf58d781	-0.8470383
71	0x3e393f3f	0.18090533
72	0xbeff6181	-0.49879077
73	0x3f700f60	0.9377346
74	0xbeb20288	-0.34767556
75	0x3e5e3de3	0.21703295
76	0xbf84f373	-1.0386795
77	0x405ed803	3.4819343
78	0xbdf8c913	-0.12147727
79	0xbfc42869	-1.5324832
80	0x3f4491b6	0.7678484
81	0x3ebb9f44	0.36644948
82	0xbf0ef122	-0.5583669
83	0xbf242255	-0.64114887
84	0x3f390496	0.7227262
85	0xbf04e86e	-0.5191716
86	0xbf6b38b4	-0.918834
87	0x3e272c94	0.16325599
88	0x3f70f9fb	0.9413144
89	0x3e570f08	0.21001828
90	0xbf613f8f	-0.8798761
91	0xbf079cc1	-0.5297356
92	0x3f6055fb	0.87631196
93	0xbe262fb3	-0.16229133
94	0xbe9be25b	-0.30446133
95	0xbe69e657	-0.22841774
96	0x3fd11c3f	1.6336745
97	0xbfd01e56	-1.6259258
98	0xbf7fca64	-0.999182
99	0x3e17b1aa	0.14813867
100	0x40151f6f	2.3300436
101	0x3f836fda	1.0268509
102	0x3f977bda	1.1834671
103	0xbe6cb888	-0.23117268
104	0xbf4fb4cc	-0.8113525
105	0x3e6af88a	0.22946373
106	0xbf271246	-0.6526226
107	0x3fd95531	1.6979123
108	0x3eebb3e4	0.46035683
109	0xbfb086ba	-1.3791115
110	0xbf84d8a7	-1.0378617
111	0xbf6e9baa	-0.93206275
112	0x3ef349e7	0.4751732
113	0xbe86c655	-0.2632319
114	0x3f291678	0.6604991
115	0x40031670	2.0482445
116	0x400aa6d3	2.1664321
117	0x3f095cdd	0.53657323
118	0x3db2d62c	0.08732256
119	0xbf8b538d	-1.0884873
120	0x3f289945	0.6585887
121	0xbfdf4661	-1.7443353
122	0xbe967fef	-0.2939448
123	0x3f129414	0.572572
124	0x3e4194ea	0.18904462
125	0x3f1259f5	0.57168514
126	0xbf9cafcd	-1.224115
127	0xbf07af99	-0.53002316
128	0xbf178848	-0.59192324
129	0xbf0af7bd	-0.5428427
130	0x3e56212f	0.20911096
131	0xbef9ef00	-0.48815155
132	0xbf814652	-1.0099585
133	0xbddb7bf5	-0.10717002
134	0x3ebe8c1a	0.37216264
135	0x3e24ccb6	0.16093716
136	0x3d4ba869	0.049721155
137	0x3f47a88e	0.7799157
138	0x3f79091a	0.9727951
139	0xbeb489cc	-0.3526138
140	0xbf40fef5	-0.75389034
141	0xbe039563	-0.12849955
142	0x3e2a5bdb	0.16636603
143	0xbf7840e0	-0.9697399
144	0xbfdae12c	-1.7099967
145	0x3f3d898e	0.74038017
146	0x3f9b4f6f	1.2133616
147	0xbf555dc4	-0.833462
148	0xbf661cbc	-0.89887595
149	0xbeeb0185	-0.45899597
150	0x3db72968	0.089434445
151	0xc00c522e	-2.1925159
152	0x3e88a988	0.26691842
153	0x3e6f9c6a	0.23399511
154	0xbf9ac42f	-1.209112
155	0xbe846f86	-0.25866336
156	0x3f9eaf38	1.2397223
157	0xbeb11fce	-0.34594578
158	0xbfa1681b	-1.2609895
159	0xbf0ebf61	-0.5576077
160	0x3dca395a	0.0987422
161	0xbe53e1a5	-0.20691545
162	0xbe8aacf6	-0.27085084
163	0x3f899c2e	1.0750787
164	0x3ed79d2c	0.421121
165	0x3ec9d4a9	0.3942006
166	0x3f74110d	0.9533852
167	0x3fae20b9	1.3603736
168	0x3f1480d8	0.580091
169	0xbfd8281d	-1.6887242
170	0x3f83943e	1.0279615
171	0xbf6cfb72	-0.92571175
172	0xbe9452f9	-0.28969553
173	0xbe83eb09	-0.25765255
174	0xbf4ef1eb	-0.8083789
175	0x3ef290e2	0.47376162
176	0xbe8b89ff	-0.2725372
177	0x3f4e5c2b	0.8060939
178	0xbf8d1fb2	-1.1025298
179	0xbf69bf24	-0.9130728
180	0xbeac23fb	-0.336212
181	0x3e081d08	0.13292325
182	0x3fca3cfb	1.579986
183	0x400b32a0	2.174965
184	0xbf3ff57a	-0.7498394
185	0xbf86c9c8	-1.0530329
186	0x3fa5135b	1.2896532
187	0xbf7e61f1	-0.99368197
188	0xbe49d27d	-0.19709201
189	0xbdb1297f	-0.08650493
190	0xbe972898	-0.29523158
191	0x4002f693	2.0462997
192	0x3fcdad30	1.6068478
193	0xbe93b0b6	-0.28845757
194	0x3f8a5122	1.080601
195	0xbea64c6f	-0.3248019
196	0xbeab1c93	-0.33420238
197	0x3d504466	0.05084648
198	0xbf6a4652	-0.9151355
199	0x3fe27f65	1.7695128
200	0x3fb72bd5	1.4310251
201	0x3ee88229	0.45411804
202	0x3f7b11e9	0.98074204
203	0x3eaac8e9	0.33356407
204	0x3eb3b759	0.3510082
205	0xbe014704	-0.12624747
206	0x3e3639bc	0.17795461
207	0xbf58ccc5	-0.84687454
208	0x3aa3f30c	0.0012508347
209	0xbfb67e5b	-1.4257311
210	0x3fb97260	1.448803
211	0x3e8d46a7	0.27592966
212	0x3f04d381	0.5188523
213	0xbf048c08	-0.5177617
214	0xbf11e3eb	-0.569884
215	0xbf88e7ff	-1.06958
216	0xbf015022	-0.505129
217	0xbf88210b	-1.0635084
218	0xbfa6f0e6	-1.3042266
219	0xbe868505	-0.2627336
220	0xbfc42130	-1.5322628
221	0xbebe053c	-0.3711337
222	0x400c8c28	2.1960545
223	0x3ef61ab3	0.48067245
224	0xbeaf3d79	-0.34226587
225	0xbe2ab4f5	-0.16670592
226	0x3fb07431	1.3785459
227	0xbf7a4000	-0.97753906
228	0xbf2bc238	-0.6709323
229	0x3f71a2f5	0.9438928
230	0xbeb3434d	-0.35012284
231	0x3f9054e7	1.127591
232	0x3f1eeefa	0.620834
233	0xbe3c7d3d	-0.1840715
234	0x3cdbc5f5	0.026827792
235	0xbf2b8b35	-0.6700929
236	0xbf19cfe1	-0.60082823
237	0x3e393bf0	0.1808927
238	0xbdeaec97	-0.11470907
239	0xbd3cc1e3	-0.046083342
240	0xbf992d63	-1.1966976
241	0x3f81e54a	1.0148098
242	0xbeb26c35	-0.3484818
243	0xbee93176	-0.45545548
244	0xbebc8025	-0.36816517
245	0x3f676e7d	0.90402967
246	0x4000403c	2.0039206
247	0xbec49a1d	-0.3839883
248	0x3f8865ee	1.0656106
249	0xbe0d6743	-0.13808922
250	0xbf0011ee	-0.5002736
251	0xbd2dbfad	-0.042419124
252	0x3f715d56	0.94283044
253	0x3f03d3f0	0.51495266
254	0x3f9da6c7	1.2316521
255	0x3fa64c06	1.299195

hidden.0.weight f4 [256, 162]
0	0x3e3def18	0.18548238
1	0x3e0a1269	0.13483585
2	0x3d7a69ed	0.061136175
3	0xbe279191	-0.16364123
4	0x3d860d81	0.065455444
5	0xbdff0931	-0.12452925
6	0x3bd3308e	0.006444997
7	0xbe19550b	-0.14973848
8	0xbd5c9261	-0.053850535
9	0x3de15d9b	0.11004182
10	0xbd034bb3	-0.032054614
11	0xbdea1fd2	-0.114318505
12	0xbd431309	-0.047625575
13	0xbd28c2ef	-0.04120153
14	0xbd79b6d9	-0.060965393
15	0x3d61ea88	0.055155307
16	0x3df8c146	0.12146239
17	0xbc3fd33f	-0.01170808
18	0xbd218c31	-0.039440338
19	0x3cf09fa4	0.029372998
20	0xbd4cf9d9	-0.05004296
21	0x3d6d4a8c	0.05793242
22	0x3d894b63	0.06703832
23	0x3ddea40c	0.10871133
24	0x3dadd3c5	0.084876575
25	0x3da7db48	0.081961215
26	0x3d0781fd	0.03308295
27	0x3dbd22a4	0.09235123
28	0xbcd2e227	-0.025742603
29	0xbc2508ca	-0.010072896
30	0xbcc88805	-0.024478922
31	0x3d7fc127	0.062440064
32	0xbdd0994a	-0.101854876
33	0xbda49b53	-0.08037438
34	0xbc4ca82f	-0.01249127
35	0x3dec05f0	0.1152457
36	0x3d0a1ca5	0.033718724
37	0xbcff77c0	-0.031185031
38	0x3cdea858	0.027179882
39	0xbd8139cb	-0.06309851
40	0xbdf1f93c	-0.11815116
41	0x3d998431	0.07495917
42	0xbd7fd510	-0.06245905
43	0xbd4156ad	-0.0472018
44	0xbdc07e37	-0.093990736
45	0x3e170cbf	0.14750956
46	0xbdc2a458	-0.09504002
47	0xbd55dec1	-0.052214388
48	0xbdba2ae6	-0.090902135
49	0xbd9f87fa	-0.07789607
50	0xbc5e2c4b	-0.013560365
51	0x3cd2ff2e	0.025756445
52	0xbd1f4348	-0.038882524
53	0x3da25681	0.079266556
54	0xbd7fe7dc	-0.062476978
55	0xbd54793a	-0.051873423
56	0xbdd29478	-0.102822244
57	0xbaed46ac	-0.0018102727
58	0xbb6ba551	-0.003595669
59	0x3d26db22	0.040736325
60	0xbb6621ce	-0.0035115364
61	0x3e118c7b	0.14213745
62	0xbdad22b0	-0.08453882
63	0x3dce6f74	0.10079852
64	0x3ddec9b5	0.10878316
65	0x3d74965c	0.059713706
66	0x3e32c334	0.17457277
67	0x3d13f73d	0.036124457
68	0x3d0c85c0	0.03430724
69	0xbc835061	-0.016029539
70	0xbd9e3d28	-0.077265084
71	0x3dcd8180	0.10034466
72	0xbcc34453	-0.02383629
73	0x3cce9ad5	0.025220314
74	0xbbc30c23	-0.0059523745
75	0x3c90c0a6	0.017669987
76	0x3d3454ee	0.044026308
77	0xbd66b5d2	-0.05632574
78	0xbe2bfd38	-0.16795814
79	0xbd57098f	-0.05249935
80	0x3b84a808	0.004048351
81	0xbcb307fc	-0.021854393
82	0xbdd775fb	-0.1052055
83	0xbd4f2537	-0.0505726
84	0x3d391e5e	0.045194976
85	0x3d3c88b8	0.046028823
86	0x3dc3ac4b	0.09554347
87	0x3ae52089	0.001748101
88	0x3d6ea531	0.058263008
89	0xbd28f7ce	-0.04125195
90	0xbd98f8ab	-0.07469305
91	0x3d3a7a52	0.04552681
92	0xbe0778eb	-0.1322972
93	0xbda1d966	-0.079027936
94	0x3dc937e6	0.09825115
95	0x3cd3c61b	0.0258513
96	0xbe59f9c1	-0.2128668
97	0x3d942e7b	0.07235428
98	0x3d76e3cc	0.060275838
99	0xbc0391ab	-0.008030335
100	0x3cc030dc	0.023460798
101	0x3d5c48ba	0.053780295
102	0x3dab954c	0.083780855
103	0xbd0f3ac7	-0.034968164
104	0xbcfbd646	-0.030741822
105	0x3d690fea	0.056899942
106	0x3cec2ed6	0.028830927
107	0x3c07c030	0.008285567
108	0x3bd45024	0.00647928
109	0x3dc2eb33	0.09517517
110	0xbad3a2bd	-0.0016146522
111	0xbcd42524	-0.025896616
112	0xbdda2a95	-0.10652653
113	0xbca2ad9a	-0.01985817
114	0xbd859f19	-0.06524486
115	0x3ca8d9e8	0.020611718
116	0x3d679259	0.056536052
117	0x3b1f1d0a	0.0024278783
118	0xbd06cd63	-0.032910716
119	0x3d277c88	0.040890247
120	0xba271154	-0.00063731265
121	0x3c15f8ac	0.009153526
122	0x3b71f7b6	0.003692133
123	0x3d3ee84e	0.04660826
124	0x3da9bd1e	0.08288024
125	0x3cc87ef5	0.0244746
126	0x3d1d9c9b	0.03847943
127	0x3cfd1538	0.030893907
128	0x3e1e352f	0.15449975
129	0x3d82e7c0	0.06391859
130	0xbdb8616d	-0.090029575
131	0xbdcb0d5c	-0.099146575
132	0xbc9aa2cb	-0.018876454
133	0x3df6de6b	0.120541416
134	0x3d72e54c	0.059300706
135	0x3d1afa3f	0.03783631
136	0x3dd1fab7	0.10252898
137	0x3c403aed	0.011732799
138	0xbe05094c	-0.12991828
139	0x3d862fd1	0.06552089
140	0xbd157442	-0.036487825
141	0x3d9aae6d	0.075528
142	0xbd5b9ec7	-0.05361822
143	0x3d39458f	0.045232352
144	0xbd9f9b07	-0.07793241
145	0x3d801d09	0.06255538
146	0x3deb9c83	0.115044616
147	0x3dd85ba7	0.10564356
148	0x3be148e8	0.006875146
149	0xbc2cf32f	-0.010556026
150	0xbd631d16	-0.05544766
151	0xbb9a9f99	-0.0047187326
152	0x3d008b89	0.03138307
153	0x3d940d68	0.072291195
154	0xbcf796c9	-0.030223267
155	0x3df74b20	0.12074876
156	0xbe36e795	-0.17861779
157	0xbc27892e	-0.010225577
158	0xbdaa1338	-0.08304447
159	0x3d9e2c00	0.07723236
160	0xbe29bb10	-0.16575265
161	0x3c0f44ba	0.008744413
162	0xbd69db8c	-0.05709414
163	0xbd952ca7	-0.072839074
164	0x3c6de202	0.0145192165
165	0xbd8ab175	-0.067721285
166	0xbc374214	-0.011185188
167	0xbda2a76f	-0.07942092
168	0xbe0cdb4e	-0.13755533
169	0x3dd9fc46	0.106438205
170	0x3dca7cb8	0.098870695
171	0x3c2b15b2	0.010442184
172	0xbdf6b399	-0.12045974
173	0x3d83349c	0.06406519
174	0x3d6b8d9d	0.0575081
175	0x3e1d0037	0.15332113
176	0x3c81d6ff	0.015849588
177	0x3c2c5d02	0.010520222
178	0xbd43ca15	-0.047800142
179	0xbcb26638	-0.021777257
180	0xbd79e111	-0.061005656
181	0xbdf7df06	-0.12103085
182	0xbdc48b04	-0.095968276
183	0xbd382db7	-0.044965472
184	0xbd35ab50	-0.04435283
185	0xbdf3381e	-0.11875938
186	0xbe26069a	-0.16213456
187	0xbaae9a73	-0.0013321176
188	0x3dae25c4	0.08503297
189	0xbd1cc142	-0.038270243
190	0x3d6d7f27	0.05798259
191	0x3d96882d	0.07350192
192	0x3e0f3283	0.13984112
193	0xbd8970b7	-0.06710952
194	0x3d9df93d	0.07713554
195	0xbca1bc9e	-0.01974326
196	0xbdb927a7	-0.09040766
197	0x3d102894	0.03519495
198	0x3cf8657b	0.030321827
199	0x3dd22f55	0.10262934
200	0x3d3d06c3	0.046149027
201	0x3e218a2f	0.15775369
202	0xbd02fa24	-0.031976834
203	0xbd8d2f9f	-0.06893849
204	0x3c90334b	0.017602583
205	0x3daa0fac	0.083037704
206	0x3dd58fa0	0.10427785
207	0x3cf12be6	0.029439878
208	0xbd5a7c56	-0.053341232
209	0xbda45ca0	-0.08025479
210	0xbd27332e	-0.040820293
211	0xbd45b3e8	-0.048267275
212	0x3c99c27f	0.0187695
213	0x3d2afbe3	0.041744124
214	0xbc0b71fc	-0.008511063
215	0xbe217eca	-0.15771022
216	0xbcf021db	-0.029313019
217	0x3da5b248	0.08090645
218	0xbe0a92e4	-0.13532597
219	0x3dec41ec	0.11536011
220	0x3ce7c20a	0.028290767
221	0xbd12244c	-0.035679147
222	0x3d9ce1cb	0.07660254
223	0x3e0053f0	0.1253202
224	0x3b0050ce	0.0019579413
225	0x3dffe2f1	0.124944575
226	0x3cae5f00	0.021285534
227	0xbda2a424	-0.079414636
228	0xbd2808be	-0.041023962
229	0x3bdb98b7	0.0067015546
230	0x3d023dfa	0.031797387
231	0x3e16febc	0.14745611
232	0x3a5c9260	0.00084141456
233	0xbd9b4092	-0.07580675
234	0xbe1bea34	-0.1522606
235	0xbda85e3c	-0.08221099
236	0x3c20ca78	0.009813897
237	0x3c8de0e1	0.017319145
238	0x3c7e257a	0.015511865
239	0x3d718824	0.058967724
240	0xbd911357	-0.07083767
241	0x3d081973	0.033227395
242	0xbd1fc887	-0.039009597
243	0x3d02f47c	0.03197144
244	0xbd82d625	-0.06388501
245	0x3bfedc54	0.00777773
246	0xbcf220a0	-0.029556572
247	0x3dc9e5ab	0.09858259
248	0x3dc280d4	0.09497228
249	0xbd81bbd4	-0.063346535
250	0x3d904700	0.07044792
251	0x3d3d6430	0.046238124
252	0x3d2c6683	0.04208995
253	0x3d417f5b	0.047240596
254	0x3d408ee3	0.047011267
255	0x3c363337	0.011120609

hidden.0.bias f4 [256]
0	0xbcba08e3	-0.022709316
1	0xbc24ea79	-0.010065668
2	0xbd0ce6ac	-0.034399673
3	0xbc587303	-0.013211015
4	0x3c41929d	0.0118147405
5	0xbd0491ca	-0.032365598
6	0x3c11fd6b	0.008910517
7	0x3c3bcf24	0.01146296
8	0xbcfbd268	-0.030739978
9	0xbc880c4e	-0.01660743
10	0xbd893392	-0.066992894
11	0xbc9fa034	-0.01948557
12	0xbbc46943	-0.0059939935
13	0x3cfe064e	0.031008866
14	0x3c9b5e24	0.018965788
15	0xbc577d08	-0.013152368
16	0xbccf7511	-0.025324376
17	0xbcad46ef	-0.021151988
18	0x3c1c5a73	0.009543049
19	0x3b568152	0.003273089
20	0x3c558fc9	0.013034769
21	0xbbc3fc3a	-0.0059809955
22	0xbd1ea6e9	-0.038733397
23	0x3c8ef6ae	0.01745161
24	0x3ce6d48b	0.02817752
25	0xbcb57ee2	-0.022155229
26	0xbc2aa759	-0.010415875
27	0xba7e9de6	-0.000971286
28	0x3d2e6e0c	0.042585418
29	0x3ce072c6	0.027398478
30	0xbd13a35d	-0.036044467
31	0xb9ee4130	-0.00045443466
32	0xbd2a5676	-0.04158636
33	0xbce603da	-0.028078008
34	0xbcdcb957	-0.026943846
35	0xbd099e0e	-0.033598
36	0xbd0940b3	-0.033508968
37	0x3d018162	0.03161753
38	0x3c2f96e2	0.010717126
39	0xbd4227af	-0.047401126
40	0x3cbc9d54	0.023024239
41	0xbd120a3c	-0.03565429
42	0x3cc66bf8	0.024221405
43	0x3a58931d	0.00082616677
44	0x3cc25f32	0.023727033
45	0x3ca951d0	0.020668894
46	0xbce22fcb	-0.02761068
47	0xbd088983	-0.033334266
48	0x3ba277b4	0.0049581174
49	0xbb916781	-0.0044373875
50	0x3c6bb821	0.0143871615
51	0x3c0f54b9	0.008748227
52	0x3b8942e3	0.0041888817
53	0xbc7a9141	-0.01529342
54	0x3c02ccc8	0.007983394
55	0x3c1f9a36	0.009741357
56	0x3d069f6c	0.03286688
57	0xbd08e6e4	-0.03342332
58	0xbce265bb	-0.0276364
59	0xbca7e047	-0.020492686
60	0x3d270e46	0.040785097
61	0x3cf4c265	0.02987785
62	0xbd51771a	-0.051138975
63	0xba3f654d	-0.0007301167
64	0x3d170063	0.036865603
65	0x3c879483	0.016550308
66	0xbd0757ef	-0.033042844
67	0xbc809492	-0.015695844
68	0xbcd22e63	-0.025656885
69	0xbda82f75	-0.08212177
70	0xbd8a3dbd	-0.06750057
71	0xbd4a7ede	-0.049437396
72	0x3d897e72	0.06713571
73	0xbd0339af	-0.032037433
74	0xbc8f82d0	-0.017518431
75	0xbcf7bff9	-0.030242907
76	0x3cd9ec32	0.026601885
77	0xbd575785	-0.0525737
78	0x3c79eb91	0.015253917
79	0xbd26f406	-0.040760063
80	0xbc54d86b	-0.012991051
81	0x3c09aae9	0.008402565
82	0xbd445a89	-0.047937904
83	0xbd34717b	-0.044053536
84	0xbd48f74a	-0.04906396
85	0x38e32590	0.000108312
86	0x3b89ce04	0.004205467
87	0x3d90f3f5	0.07077781
88	0xbccea6ed	-0.02522608
89	0xbd74d6f0	-0.059775293
90	0xbd12eaba	-0.035868384
91	0xbcc719b4	-0.024304248
92	0xbc2378c0	-0.0099775195
93	0xbc459ac3	-0.012060824
94	0x3bdadc7b	0.0066791154
95	0x3b8bd2a1	0.0042670523
96	0xbc4e45f3	-0.012589919
97	0x3d9458d5	0.07243506
98	0xbd1e1c66	-0.0386013
99	0x3d32d1ec	0.04365723
100	0xbcaef1b0	-0.02135548
101	0x3cd6d311	0.026223691
102	0xbd74d510	-0.059773505
103	0xbcb270ae	-0.021782245
104	0x3ca5e73e	0.020251866
105	0x3c81c9a3	0.015843218
106	0x3c0aa522	0.008462222
107	0x3b99b663	0.0046909316
108	0xbc988d7d	-0.018622154
109	0xbc6c58d3	-0.014425474
110	0xbb88b53f	-0.004171997
111	0xbc00d094	-0.007862229
112	0xbd09c265	-0.033632655
113	0x3c9affdd	0.018920833
114	0x3d18980c	0.03725438
115	0xba24ff44	-0.0006294141
116	0xbd067afc	-0.03283213
117	0x3d319e83	0.04336406
118	0x3c15401c	0.009109523
119	0xbd8b2dc0	-0.067958355
120	0xbcf83b0f	-0.030301599
121	0xbcf22365	-0.029557893
122	0xbd5ac2ca	-0.05340842
123	0xbc73bccd	-0.014876557
124	0xbcf343c5	-0.029695401
125	0xbc16da8e	-0.009207381
126	0xbc96a7da	-0.018390585
127	0xbd1aa3f1	-0.037754003
128	0xbd007f18	-0.031371206
129	0x3b2bd2e2	0.0026218225
130	0xbcbc9b09	-0.023023145
131	0xbd185732	-0.03719253
132	0xbcedec07	-0.02904321
133	0x3c5ed3c3	0.013600293
134	0xbd1b98ce	-0.037987523
135	0x3d2a916b	0.041642588
136	0xbd27abd4	-0.040935352
137	0x3d007793	0.031364035
138	0xbd647eaf	-0.055784877
139	0x3b8b49e4	0.004250752
140	0xbbf6a3c7	-0.007526848
141	0xbd5d429b	-0.054018598
142	0xbcf62c1b	-0.030050328
143	0xbd1a5893	-0.037682127
144	0x3cac4c3d	0.021032447
145	0xba4dd2d4	-0.0007851545
146	0xbcb3db66	-0.021955203
147	0x3c146a01	0.009058476
148	0xbc197d5a	-0.009368265
149	0x3caae812	0.020862613
150	0xbcd67e66	-0.026183318
151	0xbb3e0385	-0.0028993797
152	0x3c4cdfe1	0.012504549
153	0x3cbb25a6	0.0228451
154	0xbb002d42	-0.0019558226
155	0xbd93aca1	-0.07210661
156	0xbccbc5d9	-0.024874615
157	0x3d4cdd8a	0.050015964
158	0xbc8580cd	-0.016296769
159	0xbd52e36f	-0.05148643
160	0xbbb5c447	-0.0055470797
161	0xbc372a8e	-0.011179579
162	0xbd5943fd	-0.053043354
163	0x3c0e3622	0.008679898
164	0xbb8035b2	-0.003912651
165	0xbbfb1db9	-0.0076634553
166	0xbc9e161a	-0.019297648
167	0xbd2675a6	-0.040639542
168	0xbd81ab84	-0.06331542
169	0xbcd5c6a6	-0.0260957
170	0xbc19eba6	-0.009394562
171	0x3cdafec5	0.026732812
172	0x3c0a03f2	0.008423792
173	0xbc5bbc0a	-0.013411531
174	0xbd84fd04	-0.064935714
175	0x3cac9be9	0.021070438
176	0xbca61be5	-0.020276973
177	0x3d712dfb	0.05888174
178	0x3d205bd3	0.03915007
179	0xbd043953	-0.03228123
180	0xbcea772b	-0.028621277
181	0xbd21d5a2	-0.039510377
182	0xbcae24a2	-0.021257702
183	0x3b9e948c	0.0048394855
184	0xbce4b2db	-0.027917316
185	0xbd2ed6aa	-0.04268519
186	0xbd28c2be	-0.041201346
187	0x3c87b392	0.016565118
188	0xbc94437a	-0.018098582
189	0xbd02b33b	-0.03190921
190	0xbcb93594	-0.022608556
191	0xbb9d3c64	-0.004798459
192	0xbcf7aaac	-0.03023275
193	0xbc9a82cb	-0.018861195
194	0xbcacb73c	-0.021083467
195	0xbcd7af13	-0.0263286
196	0x3bae3756	0.005316655
197	0xbb665378	-0.0035144966
198	0xbd5ed4b3	-0.054402065
199	0x3d08ac4f	0.03336745
200	0x3cf23292	0.02956513
201	0xbd1e4b0b	-0.038645785
202	0xbbc468cc	-0.005993938
203	0xbc09dd89	-0.0084146345
204	0xbc3c8caf	-0.011508151
205	0xbd4cffc9	-0.050048623
206	0x3c9a163f	0.018809436
207	0xbcf4000f	-0.029785184
208	0x3cef6a67	0.029225541
209	0xbd3da3b2	-0.04629869
210	0xbb331479	-0.0027325435
211	0xbc41976a	-0.011815885
212	0x3cf10192	0.029419694
213	0x3ce84694	0.028353967
214	0x3c921848	0.017833844
215	0x3cb449f6	0.022007924
216	0xbd420d78	-0.047376126
217	0x3d9b44f0	0.07581508
218	0x3d872ba9	0.066001244
219	0xbc8cebf4	-0.017202355
220	0xbc9779df	-0.01849073
221	0xbcafc085	-0.021454105
222	0xbd68d62c	-0.056844875
223	0xba505d4f	-0.00079484744
224	0xbad8a026	-0.001652722
225	0x3d42e9e2	0.04758633
226	0xbbf60222	-0.0075075785
227	0xbc781baa	-0.015143314
228	0xbc1a0949	-0.009401628
229	0xbcdff37a	-0.027337778
230	0xbc4f3877	-0.01264774
231	0xbd3b7126	-0.045762204
232	0xbcfebd75	-0.0310962
233	0x3d23559d	0.03987657
234	0xbc657930	-0.014005944
235	0xbcf0939d	-0.029367262
236	0xbd3819d2	-0.0449465
237	0x3d9486c0	0.07252264
238	0xbcfac15e	-0.030609783
239	0x3c95bdf6	0.018279057
240	0x3cbebe5d	0.023284132
241	0xbd2c8705	-0.042120952
242	0x3c87489e	0.016514119
243	0x3c83b674	0.016078211
244	0xbd2b4cfc	-0.041821465
245	0x3cefaba7	0.029256655
246	0xbcf113c8	-0.029428378
247	0xbd265c67	-0.040615465
248	0xbcd79a19	-0.026318597
249	0xbaa89011	-0.0012860318
250	0xbd698e33	-0.057020377
251	0xbd118235	-0.035524566
252	0x3c249442	0.010045113
253	0xbc39cf31	-0.011340902
254	0xbb4169c9	-0.0029512516
255	0xbd1d2176	-0.03836199

hidden.2.weight f4 [256, 256]
0	0x3dd01fd1	0.101623185
1	0x3d8f36cf	0.06992876
2	0xbc86f6c2	-0.016475085
3	0x3d96ee77	0.07369702
4	0xbdd7c436	-0.10535471
5	0xbd4334a4	-0.047657624
6	0x3d770dd0	0.060315907
7	0xbbe25694	-0.0069072936
8	0x3d01f3b6	0.03172656
9	0xbda9b3d8	-0.082862556
10	0x3da296ef	0.079389445
11	0xbcc112ca	-0.02356853
12	0x3c07dd60	0.008292526
13	0x3bd91cfd	0.00662577
14	0xbc813af8	-0.015775189
15	0xbdddfe1b	-0.108394824
16	0x3b204dc6	0.002446042
17	0xbd8425c6	-0.06452517
18	0xbdce7790	-0.100813985
19	0x3d9c19b0	0.07622087
20	0x3d0337d1	0.032035653
21	0x3c3cbc50	0.011519507
22	0xbd8f8578	-0.07007879
23	0x3df8eed7	0.1215493
24	0x3e03e995	0.12882073
25	0xbdcb6aeb	-0.09932502
26	0xbca29544	-0.019846566
27	0x3bb32421	0.0054669534
28	0x3db3ff34	0.087889105
29	0x3d84d715	0.06486336
30	0x3dae2ff5	0.08505241
31	0xbca99307	-0.02069999
32	0xbd8eafbb	-0.06967112
33	0x3cec98ff	0.028881548
34	0xbc35873f	-0.011079608
35	0xbc937198	-0.017998502
36	0xbbf9e5f8	-0.0076262914
37	0xbd363797	-0.04448661
38	0x3c165c63	0.0091773
39	0xbde4f375	-0.11179248
40	0xbdbdcd7c	-0.09267709
41	0x3cd01bc0	0.025403857
42	0x3c91e608	0.017809883
43	0xbd89c6d1	-0.06727374
44	0xbd927a2a	-0.07152207
45	0x3c0f8dbf	0.008761822
46	0x3da5721b	0.080784045
47	0x3cf07254	0.02935139
48	0xbbae909a	-0.0053272964
49	0x3d993c67	0.07482224
50	0x39cfaf80	0.00039612874
51	0xbd626226	-0.055269383
52	0xbd5449d9	-0.05182824
53	0xbd844683	-0.064587615
54	0xbd805105	-0.06265453
55	0xbdba5024	-0.09097317
56	0x3d9ff9c0	0.07811308
57	0xbd8b6d60	-0.06807971
58	0x3d32c5cb	0.04364566
59	0x3b3269ba	0.0027223662
60	0xbc0ca353	-0.008583861
61	0x3ce39433	0.027780628
62	0x3d820ad9	0.06349725
63	0x3bacc1f9	0.005272147
64	0xbb76e9b3	-0.0037675917
65	0xbe237012	-0.1596072
66	0x3b615177	0.0034380832
67	0x3d236a32	0.039896198
68	0xbcb60bbf	-0.022222398
69	0xbd0ab9fa	-0.033868767
70	0x3c994d77	0.018713696
71	0x3dbb3a54	0.091419846
72	0xbd791ef1	-0.060820524
73	0x3b7c8a5d	0.003853462
74	0xbc7759ef	-0.015097125
75	0xbce7da8b	-0.028302452
76	0xbce24f76	-0.02762578
77	0xbd8a2dc5	-0.06747011
78	0x3d99e7dd	0.075149275
79	0x3d8f7f49	0.070066996
80	0x3d9f66f9	0.07783312
81	0x3c9fbad9	0.019498276
82	0xbc3f4cb4	-0.011676002
83	0x3cc6df41	0.024276378
84	0xbcb5d443	-0.02219594
85	0xbba6b490	-0.0050874427
86	0x3d204abd	0.039133776
87	0xbd00416d	-0.031312395
88	0xbd7e34d4	-0.0620621
89	0xbd332bf1	-0.043743078
90	0xbd068007	-0.03283694
91	0x3bb0e738	0.005398657
92	0x3d5ff517	0.054677095
93	0x3d9072dc	0.07053158
94	0x3dd98c7e	0.106225
95	0xbcb856d3	-0.022502339
96	0x3d40000d	0.04687505
97	0xbdad924f	-0.08475172
98	0x3d1c71ec	0.038194582
99	0x3de40381	0.11133481
100	0xbd8e1b6f	-0.06938826
101	0xbcc272cc	-0.02373638
102	0x3c6bd406	0.014393812
103	0xbdd5cd89	-0.10439593
104	0xbba2a164	-0.004963087
105	0xbc647447	-0.013943738
106	0x3b8acfbc	0.0042361896
107	0x3df6af8b	0.12045201
108	0xbd1ceb04	-0.038310066
109	0xbd9078eb	-0.07054313
110	0x3dfb5ce3	0.12273576
111	0xbe464744	-0.19363123
112	0x3dac5be3	0.084159635
113	0x3d944106	0.07238965
114	0x3cfebf63	0.03109712
115	0xbdc288b7	-0.094987325
116	0xbd80d2da	-0.06290217
117	0xbc93f54a	-0.018061299
118	0xbc155d6c	-0.009116512
119	0xbb11a454	-0.0022223191
120	0x3ca5c06d	0.020233357
121	0x3dd58fa9	0.104277916
122	0x3dab5407	0.08365636
123	0xbd6b08c4	-0.057381406
124	0xbd8d7992	-0.06907953
125	0x3cda7cbf	0.026670812
126	0x3d098806	0.033576988
127	0xbd274547	-0.040837552
128	0x3c592a82	0.013254764
129	0x3cd9b8f3	0.026577448
130	0xbdd0c1b8	-0.10193199
131	0xbd8cc8f4	-0.06874266
132	0xbdba8b5b	-0.09108611
133	0x3d066106	0.032807373
134	0x3acb35fe	0.0015503762
135	0xbd57a8c3	-0.052651178
136	0xbd841e14	-0.064510494
137	0x3dec5edf	0.11541533
138	0xbdfbffe1	-0.123046644
139	0xbd6b5dfa	-0.05746267
140	0x3d8757bd	0.066085316
141	0x3c654243	0.013992849
142	0xbd329c87	-0.043606307
143	0xba92d1f6	-0.0011201489
144	0xbc8750c2	-0.016518
145	0xbca6fbd8	-0.02038376
146	0xbd550c42	-0.052013643
147	0xbd711a6e	-0.058863096
148	0xbd82b7cf	-0.06382715
149	0x3d69d663	0.05708922
150	0xbc4c70d2	-0.01247807
151	0x3d6ed9c6	0.058313154
152	0xbd04a627	-0.032385018
153	0xbb0ab6b4	-0.0021166028
154	0xbd8152ba	-0.06314607
155	0xbcb1b39b	-0.021692088
156	0xbcf1abd6	-0.029500883
157	0xbc19f0f2	-0.009395825
158	0xbb93e3e9	-0.004513253
159	0xbd0856f3	-0.033286046
160	0x3d25d8b1	0.040489856
161	0x3d87841d	0.066169955
162	0xbb83f87f	-0.004027426
163	0xbdbcb7e8	-0.09214765
164	0xbdea9940	-0.11455011
165	0x3e0380d3	0.12842111
166	0x3da2d688	0.07951075
167	0x3d20c7ee	0.039253168
168	0xbda89596	-0.08231656
169	0xbc71964e	-0.014745308
170	0xbd1e6d9f	-0.03867876
171	0x3ccf8fe9	0.025337176
172	0xbd154eb3	-0.036452007
173	0xbbfa347c	-0.007635651
174	0xbd786253	-0.060640644
175	0xbbb734b7	-0.005591001
176	0xbbefff5a	-0.0073241415
177	0xbcfc981b	-0.030834248
178	0xbd2bed08	-0.041974097
179	0x3c94c78a	0.018161554
180	0xbda61ee9	-0.081113644
181	0xbbcdc578	-0.0062796436
182	0xbca78107	-0.020447267
183	0x3cc665dd	0.024218494
184	0xbd8140aa	-0.06311162
185	0x3ac5e859	0.0015099152
186	0x3d9084b5	0.07056562
187	0xbcb296d7	-0.021800442
188	0xbca471a3	-0.020073717
189	0x3bb06061	0.005382583
190	0x3cadfa24	0.02123744
191	0xbdae310d	-0.085054494
192	0xbd8069a9	-0.06270153
193	0xbd96d797	-0.07365339
194	0x3d8d9841	0.06913806
195	0x3cafdfd2	0.02146903
196	0xbc994fba	-0.018714774
197	0xbd8b4c2f	-0.0680164
198	0xbdd2c10f	-0.10290729
199	0x3c41fb0d	0.01183964
200	0xbd85ac5a	-0.06527014
201	0xbc8ba9a2	-0.01704866
202	0x3d2e8c01	0.042613987
203	0x3d2c42bd	0.042055834
204	0xbd7d2c88	-0.061810046
205	0xbddd5ec4	-0.10809091
206	0xbd35fcd7	-0.04443058
207	0x3da189b8	0.07887596
208	0xbaf26aad	-0.0018494927
209	0xbe34a1e2	-0.17639878
210	0x3cb349b3	0.021885728
211	0x395ae6b8	0.0002087605
212	0xbdd17434	-0.10227242
213	0xbc9e7bd3	-0.019346153
214	0xbd0a550e	-0.03377252
215	0x3caa46e6	0.02078576
216	0x3de19100	0.11013985
217	0x3d532e8b	0.05155806
218	0xbdc965b3	-0.09833851
219	0x3dd375ef	0.103252284
220	0xbe1bb9a6	-0.15207538
221	0xbd82fc13	-0.063957356
222	0xbc8cab9b	-0.017171672
223	0x3c06e819	0.008234047
224	0xbd14cfe6	-0.03633108
225	0x3c7e8c73	0.015536415
226	0x3cfb480a	0.030674
227	0xbe1a110a	-0.15045562
228	0x3d1baf4e	0.03800898
229	0xbda03319	-0.07822246
230	0xbd92dde6	-0.0717123
231	0xbcf40323	-0.029786652
232	0xbbe6fb05	-0.007048967
233	0xbb1c18a4	-0.0023818398
234	0x3d86e030	0.06585729
235	0xbd8b3275	-0.06796733
236	0x3d467fe3	0.048461806
237	0x3c20cbed	0.009814245
238	0x3cdf553e	0.027262326
239	0x3d3377da	0.04381547
240	0x3d639020	0.05555737
241	0xbd1c0b88	-0.038096935
242	0xbd0497d9	-0.032371376
243	0xbd7a7512	-0.061146803
244	0x3d3b433b	0.045718413
245	0xbd6fe6c8	-0.0585697
246	0xbd166f71	-0.036727373
247	0xbe1a025e	-0.15039966
248	0x3e1a5c67	0.15074311
249	0xbd995e4c	-0.07488689
250	0x3d1eecad	0.03879993
251	0x3c1d0f77	0.009586207
252	0xbdd4dcef	-0.10393702
253	0x3d2865c4	0.041112676
254	0xbd0577b7	-0.032584872
255	0x3d35461b	0.04425631

hidden.2.bias f4 [256]
0	0x3ca67376	0.020318728
1	0xbd05e961	-0.03269327
2	0xbd0969ca	-0.033548154
3	0x3b95edd9	0.004575473
4	0x3cc54d98	0.024084851
5	0xbc71c7f8	-0.014757149
6	0x3d105a34	0.035242274
7	0xbb99f4c3	-0.0046983673
8	0xbd3e8e90	-0.046522677
9	0xbd0a5b18	-0.03377828
10	0xbd0d3760	-0.034476638
11	0xbd0dd166	-0.034623526
12	0xbd211a99	-0.039332006
13	0xbcfc0351	-0.0307633
14	0xbd24198e	-0.040063433
15	0x3d3953c3	0.045245897
16	0xbca11c65	-0.01966686
17	0x3d3bb077	0.045822587
18	0xbbae5eb9	-0.0053213504
19	0x3c9e65a8	0.019335583
20	0x3cda7383	0.026666408
21	0xbd89c8af	-0.067277305
22	0xbd5de1d3	-0.05417044
23	0xbc3e954b	-0.011632274
24	0x3c29f32c	0.010372918
25	0xbd408042	-0.046997316
26	0xbd453a22	-0.048151143
27	0x3cdf73d9	0.02727692
28	0x3d092a9c	0.0334879
29	0xbd5ab3fa	-0.053394295
30	0xbd315739	-0.043296073
31	0x3cd819b0	0.026379436
32	0xbd51c422	-0.051212437
33	0xbbbf7c88	-0.0058437027
34	0xbd3f1e6e	-0.04665988
35	0xbcc8c2ea	-0.024507005
36	0x3c48908c	0.012241494
37	0xbc86c8df	-0.016453205
38	0xbb86c8bc	-0.004113285
39	0x3d03d26b	0.032183092
40	0x3c5e2165	0.013557767
41	0xb8709153	-5.7355803e-05
42	0xbc32c211	-0.010910527
43	0xbcc84045	-0.024444709
44	0x3c5c0c6c	0.013430696
45	0xbcc45c38	-0.023969755
46	0xbd309eb5	-0.043120105
47	0x3cea9dd1	0.028639706
48	0x3d2d367e	0.042288296
49	0xbd9f8f9e	-0.07791065
50	0x3b1bf90f	0.0023799574
51	0xbcd3f391	-0.025872977
52	0x3c10e348	0.008843251
53	0x3c1e656f	0.009667738
54	0xbc8e9cc6	-0.01740874
55	0xbc9f5216	-0.019448321
56	0xbc2ffdda	-0.010741675
57	0xbd090610	-0.033453047
58	0xbd0920b1	-0.033478443
59	0x3be3d541	0.006952912
60	0x3d196b52	0.037455864
61	0x3d62c024	0.05535902
62	0x3cb3e30f	0.021958856
63	0xbd44378f	-0.047904547
64	0xbd194070	-0.037414968
65	0xbbdc4414	-0.0067219827
66	0x3c953d4e	0.018217709
67	0x3cbe5ca7	0.02323754
68	0xbc6edae5	-0.014578556
69	0x3cf584ee	0.029970612
70	0x3d1cc85f	0.038277026
71	0x3b7ce166	0.0038586496
72	0xbcc2705d	-0.02373522
73	0xbc9f89ab	-0.019474825
74	0x3b932130	0.0044900402
75	0x3ba24cd6	0.004953007
76	0xbcc0b079	-0.023521649
77	0xbcbe595d	-0.023235971
78	0x3c9f1c1c	0.019422583
79	0xbd003b46	-0.031306528
80	0xbd350a72	-0.044199415
81	0xbc9b0907	-0.018925203
82	0xbaa1f6c2	-0.0012356865
83	0xbd12973d	-0.035788763
84	0x3c9080cb	0.017639538
85	0x3b8bf662	0.0042713145
86	0x3c5e576f	0.0135706505
87	0xbd4ebdeb	-0.05047409
88	0xbb200570	-0.0024417304
89	0xbc138f32	-0.009006308
90	0xbd352b0e	-0.044230513
91	0xbc476d71	-0.012172089
92	0x3c3995cd	0.011327219
93	0xbcdb293d	-0.026753062
94	0x3d1627a5	0.0366589
95	0xbc07dc55	-0.008292277
96	0xbcc9711c	-0.024590068
97	0xbd09d5b6	-0.033651076
98	0x3c450d34	0.012027074
99	0xbc3aabf3	-0.011393535
100	0xbc8bf5c3	-0.017084962
101	0xbcb32eba	-0.021872867
102	0x3c93b0c0	0.018028617
103	0x3c385fb5	0.011253287
104	0xbcd5929c	-0.026070885
105	0xbc059160	-0.008152336
106	0xbc119692	-0.008885996
107	0x3c7a4330	0.015274808
108	0xbd721ef3	-0.059111547
109	0xbd1d57ee	-0.038413934
110	0x3d0eb2e5	0.034838576
111	0x3ca4e06f	0.02012655
112	0x3ca6c017	0.020355267
113	0xbc157606	-0.009122377
114	0x3c93a6a7	0.018023802
115	0x3c0ff408	0.008786209
116	0xbbac4bbd	-0.005258052
117	0xbcaae735	-0.020862201
118	0xbd658ce9	-0.056042586
119	0xbd0a97f4	-0.03383632
120	0x3cb68f4d	0.022285128
121	0xbceb51ec	-0.028725587
122	0xbd27d715	-0.040976603
123	0xbcbc6b2f	-0.023000328
124	0xb9eaea1b	-0.0004480638
125	0x3c1204ca	0.008912275
126	0x3cf421a1	0.029801192
127	0xbce3ba76	-0.027798872
128	0x3c3d3fb7	0.011550835
129	0x3c3a5b4b	0.011374305
130	0xbd5c4fdc	-0.053787097
131	0xbd440b47	-0.047862317
132	0xbd1f960b	-0.03896145
133	0x3c2c7450	0.010525778
134	0x3c4f7037	0.012661031
135	0x3cfa64c2	0.030565623
136	0x3bd3016c	0.0064393785
137	0xbd8412ee	-0.06448923
138	0xbc9ddbe4	-0.019269891
139	0xbd405b88	-0.04696229
140	0x3c798abb	0.01523083
141	0xbd21c15b	-0.03949104
142	0xbc9d258e	-0.019182947
143	0x3d280df5	0.041028935
144	0xb8f7a5e9	-0.00011808781
145	0x3ce79b46	0.028272282
146	0x3c67f93f	0.014158546
147	0x3cdeac4c	0.027181767
148	0xbc87f4f9	-0.016596304
149	0x3bb0b3df	0.005392536
150	0xbc802577	-0.015642865
151	0x3c9db2f1	0.019250365
152	0xbce7ad6b	-0.028280934
153	0x3cc053d3	0.02347747
154	0x3cc9ec00	0.024648666
155	0x3d20c831	0.039253417
156	0xbca906cb	-0.020633122
157	0x3ca173fc	0.019708626
158	0x3cbc0812	0.022953067
159	0x3c561d71	0.013068543
160	0x3c21aa75	0.0098673
161	0x3d1d600d	0.03842168
162	0xbcacab17	-0.021077676
163	0xbd0172b0	-0.031603515
164	0xbb565c1e	-0.0032708715
165	0xbca2c28d	-0.01986816
166	0xbca5c6a7	-0.020236326
167	0xbccba3f0	-0.024858445
168	0x3c59e8c7	0.013300127
169	0xbcb53bfc	-0.02212333
170	0xbca89b30	-0.020581812
171	0xbd198c55	-0.037487347
172	0xbcceaae8	-0.025227979
173	0xbccccd1a	-0.025000144
174	0xbc924c5b	-0.017858675
175	0xb85ecff0	-5.312258e-05
176	0x3b48f417	0.0030663067
177	0xbd395a62	-0.04525221
178	0xbd17aa72	-0.037027784
179	0xbcc48745	-0.023990283
180	0xbd24fc55	-0.040279705
181	0x3b97cf7f	0.0046328898
182	0xbd316ff8	-0.043319672
183	0x3ccadc72	0.02476332
184	0xbd13d753	-0.03609402
185	0x3cd232c6	0.025658976
186	0x3d05ef6a	0.032699026
187	0x3c91b9f0	0.017788857
188	0x3cc4e235	0.024033645
189	0x3b293a89	0.0025822243
190	0xbba8a9b8	-0.005147185
191	0xbc72f489	-0.01482881
192	0x3ce3548b	0.027750274
193	0xbd5ea46a	-0.054356016
194	0xbcb36f0f	-0.021903543
195	0x3b62f51c	0.003463096
196	0xbcedbfa6	-0.02902205
197	0x3a4b7de9	0.00077625975
198	0x3a569030	0.0008184938
199	0xbcce8263	-0.025208658
200	0xbd124c8e	-0.03571754
201	0xbd2a54e5	-0.041584868
202	0xbd44e651	-0.04807121
203	0x3cdbd016	0.026832622
204	0xbc8147c8	-0.015781298
205	0xbbd1b76c	-0.0064000394
206	0xbd18e659	-0.03732905
207	0x3b876d8f	0.0041329334
208	0xbd42372a	-0.04741589
209	0x3d28d275	0.041216332
210	0xbcc7d0c5	-0.024391541
211	0x3b240400	0.0025026798
212	0x3c8b20b4	0.016983368
213	0x3c832ecb	0.016013524
214	0xbcd261d5	-0.025681416
215	0xbd0a124c	-0.033708856
216	0xbc2c2884	-0.010507707
217	0x3d3198a1	0.04335845
218	0x3c8e49d9	0.017369198
219	0xbb714334	-0.0036813738
220	0xbd20c90c	-0.039254233
221	0xbce09d4e	-0.027418759
222	0xbcf73e8e	-0.030181196
223	0xbbea7de2	-0.0071561197
224	0xbc79ce7a	-0.015246982
225	0xbcd9e6b9	-0.026599275
226	0xbcee104e	-0.029060509
227	0x3cc76af9	0.024343
228	0xbd23efd2	-0.040023632
229	0xbcb27e5b	-0.021788767
230	0x3d167ab9	0.03673813
231	0x3c8520a8	0.016250923
232	0xbc21dc98	-0.009879254
233	0xbd1b2868	-0.03788033
234	0xbcbf9c4e	-0.023389962
235	0xbcb4eb94	-0.022084989
236	0x3d0b7837	0.034050193
237	0xbcbe01d1	-0.023194226
238	0x3cc29eba	0.023757327
239	0x3ad1bd62	0.0016001875
240	0xbd346009	-0.0440369
241	0xbd613f98	-0.05499229
242	0x3c5b7d24	0.013396535
243	0x3a04215d	0.0005040372
244	0xbc0ce6b1	-0.008599923
245	0xbd536a9a	-0.051615335
246	0xbcd1c260	-0.02560538
247	0xbd08e8a4	-0.03342499
248	0x3bb47071	0.005506568
249	0xbd3491fe	-0.04408454
250	0x3b650cd3	0.003495027
251	0x3d183c09	0.03716663
252	0x3cfa2d0a	0.030539054
253	0xbace3a3d	-0.0015733909
254	0x3c4da4d4	0.012551505
255	0x3d50d939	0.05098841

hidden.4.weight f4 [128, 256]
0	0x3dc80144	0.097658664
1	0xbdc4de97	-0.09612768
2	0x3d00c9c0	0.031442404
3	0xbd275044	-0.04084803
4	0xbb198798	-0.0023426767
5	0x3d060049	0.032715116
6	0x3b9a7280	0.0047133565
7	0xbcb8665a	-0.022509743
8	0x3d97e00e	0.07415782
9	0xbd5d6843	-0.05405451
10	0x3d238ef2	0.039931245
11	0xbcef0b97	-0.029180331
12	0x3d092302	0.03348065
13	0xbd66ec85	-0.056377906
14	0x3d16e9ad	0.036843944
15	0x3bcfcf56	0.006341855
16	0x3be3acd3	0.0069480925
17	0xbc2cf157	-0.010555587
18	0x3de4cedb	0.11172267
19	0xbd250b53	-0.040294003
20	0xbd9b9a82	-0.075978294
21	0xbd9c8133	-0.0764183
22	0x3d3bcb4b	0.045848172
23	0xbb35b3c9	-0.0027725569
24	0x3d191d63	0.03738154
25	0x3daaa61a	0.083324626
26	0x3d8aad4b	0.06771334
27	0xbcffa081	-0.031204464
28	0xbd400c5a	-0.04688678
29	0xbd0f2ab6	-0.03495284
30	0xbd78d121	-0.060746316
31	0xbc51dd14	-0.012809057
32	0x3d13288d	0.035927344
33	0x3de00a86	0.10939507
34	0xbcb14d8f	-0.021643428
35	0xbd6507f7	-0.0559158
36	0x3d6a646a	0.05722467
37	0xbdaced89	-0.08443744
38	0xbcafd37b	-0.021463146
39	0xbd5023a1	-0.05081523
40	0x3cf3666c	0.029711924
41	0xbc5fa300	-0.013649702
42	0x3d910b74	0.07082263
43	0xbdb799ec	-0.08964905
44	0xbe0e7459	-0.1391157
45	0xbdb4992a	-0.08818276
46	0x3e2d44e3	0.1692081
47	0xbc9c750d	-0.019098783
48	0xbd76bdd3	-0.060239624
49	0xbc0e69d8	-0.008692227
50	0xbda05178	-0.07828039
51	0xbd2ee153	-0.042695355
52	0xbd706dd8	-0.058698505
53	0x3d738124	0.05944933
54	0xbd41a71d	-0.047278512
55	0x3d006c46	0.031353258
56	0xbd07fcd2	-0.033200093
57	0x3df7d38a	0.12100895
58	0xbc8d8e21	-0.017279686
59	0x3d441735	0.047873694
60	0x3c517365	0.01278386
61	0x3d8545a0	0.065074205
62	0x3cfe94ae	0.031076755
63	0x3d242ce1	0.040081862
64	0xbe0623b3	-0.13099556
65	0xbc894f0e	-0.016761329
66	0x3d581069	0.052750025
67	0xbcf0ac3d	-0.029379005
68	0x3c8792d6	0.016549509
69	0x3d698d1f	0.05701935
70	0x3b0ae803	0.0021195419
71	0x3ca6a905	0.020344267
72	0x3e0774dc	0.13228172
73	0x3da00eaf	0.07815301
74	0x3c522ed4	0.0128285475
75	0x3d0d58f4	0.03450866
76	0xbd115fdd	-0.035491813
77	0x3c01e9fe	0.007929323
78	0xbd885043	-0.06655934
79	0xbc723967	-0.014784194
80	0x3c13a9b9	0.009012633
81	0x3c86624f	0.016404299
82	0x3bc519d6	0.006015043
83	0xbd84a268	-0.06476289
84	0xbca2e311	-0.019883664
85	0xbdeedfe3	-0.11663797
86	0xbce10f46	-0.027473103
87	0xbd015514	-0.031575277
88	0x3c5d07c7	0.013490624
89	0x3c601a06	0.0136780795
90	0xbcb61137	-0.022225006
91	0xbd7bdfed	-0.06149285
92	0xbc317886	-0.010831958
93	0x3c3e9740	0.0116327405
94	0x3cb7f09f	0.022453604
95	0x3d3a9549	0.045552526
96	0xbd92d0a8	-0.07168704
97	0xbd0fc20b	-0.035097163
98	0x3ac970e9	0.0015368733
99	0x3d946f38	0.07247776
100	0xbc6971d1	-0.014248327
101	0xbdc0ee04	-0.09420398
102	0xbc6d8761	-0.014497609
103	0xbcc6133c	-0.024179094
104	0xbbad2e47	-0.0052850577
105	0x3dda388a	0.10655315
106	0xba4ca4e5	-0.00078065536
107	0xbca75de6	-0.020430516
108	0x3d2e8159	0.042603824
109	0xbdb3f233	-0.0878643
110	0xbd7de0e7	-0.06198206
111	0xbd1a54a4	-0.037678376
112	0x3ca0072c	0.01953467
113	0xbd481050	-0.04884368
114	0xbd1382e2	-0.03601349
115	0xbc093257	-0.008373818
116	0xbe0dca91	-0.13846804
117	0x3d5f1fd5	0.054473717
118	0xbb16ba44	-0.0022999207
119	0x3ce578f1	0.02801177
120	0xbbbbf052	-0.0057354355
121	0x3d082b98	0.0332447
122	0x3baafe18	0.0052182786
123	0xbcf9ce66	-0.030493926
124	0x3d9fbfff	0.07800292
125	0x3d9a0893	0.07521167
126	0x3c4df8c1	0.012571515
127	0xbdcae1bc	-0.09906337
128	0x3dbae48e	0.091256246
129	0x3c89919c	0.016793065
130	0x3b8fa210	0.004383333
131	0xbd30f701	-0.04320431
132	0xbd796405	-0.0608864
133	0x3e251cb3	0.16124229
134	0x3d8a4593	0.067515515
135	0xbd057723	-0.03258432
136	0xbd64d455	-0.055866558
137	0xbe1e1f4b	-0.15441625
138	0x3d86a0ea	0.06573661
139	0xbd7e754a	-0.062123574
140	0xbd003961	-0.03130472
141	0x3cfd5c20	0.030927718
142	0x3cf41c9c	0.029798798
143	0xbccb4be3	-0.024816459
144	0xbc1a3ede	-0.009414403
145	0xbd739f1f	-0.05947792
146	0x3d5e8cbb	0.05433343
147	0x3c7b9d35	0.015357305
148	0x3d7973a8	0.060901314
149	0x3b8764ce	0.00413189
150	0xbdd3d43e	-0.10343216
151	0x3cf99a1f	0.030468998
152	0x3d3513ff	0.044208523
153	0xbda71726	-0.08158712
154	0xbc89fb2e	-0.016843405
155	0x3cd5dc18	0.026105925
156	0xbdaa84ea	-0.083261326
157	0xbb70dd71	-0.0036753083
158	0xbd86c634	-0.06580773
159	0x3dcd228e	0.100163564
160	0x3c5e7721	0.013578207
161	0x3d91d368	0.07120401
162	0x3d6881c8	0.056764394
163	0x3d9c64b9	0.07636399
164	0xbccb9f84	-0.024856336
165	0x3cd2ecc6	0.025747668
166	0xbda9dd68	-0.08294183
167	0xbb65f4fc	-0.003508865
168	0x3d7dad8c	0.061933085
169	0xbe1cb44c	-0.15303153
170	0x3ce37aad	0.027768457
171	0xbca00f4c	-0.019538544
172	0x3c42264e	0.011849953
173	0x3c9c523d	0.019082183
174	0xbd00115c	-0.031266555
175	0x3d8ec013	0.06970229
176	0xbccdca59	-0.025120901
177	0x3d777a8c	0.060419604
178	0x3d984f8a	0.07437046
179	0x3d33f072	0.04393048
180	0xbb6eeafc	-0.003645598
181	0x3cc225ce	0.023699667
182	0x3d3fd986	0.046838306
183	0xbcf96d11	-0.030447515
184	0xbbdcebca	-0.0067419754
185	0x3d8adf8d	0.0678092
186	0x3dbe1f08	0.092832625
187	0xbd5761e6	-0.052583598
188	0xbd93ad9e	-0.07210849
189	0xbdeedab2	-0.116628066
190	0xbd6f34ef	-0.05840009
191	0xbd97cc50	-0.074120164
192	0x3d877173	0.066134356
193	0xbb198eaa	-0.0023430982
194	0x3dec519d	0.11539004
195	0xbc892f19	-0.01674609
196	0xbcd2090e	-0.025639083
197	0x3dda2384	0.10651305
198	0xbd0c061d	-0.034185518
199	0x3d27ee1b	0.04099856
200	0x3ddcd424	0.1078265
201	0x3e06188e	0.13095304
202	0x3d6dc954	0.05805333
203	0xbdac759b	-0.08420869
204	0xbe0dc7f2	-0.13845804
205	0x3cf8d417	0.03037457
206	0x3d045a36	0.032312594
207	0x3d299acd	0.041407395
208	0x3cb8e7db	0.022571495
209	0xbcb13d9a	-0.02163582
210	0xbd259420	-0.040424466
211	0xbafa1a65	-0.0019081353
212	0x3cef178a	0.029186029
213	0x3cc0a5f3	0.02351663
214	0xbd644baf	-0.05573624
215	0xbd7269f3	-0.059183072
216	0xbd38922f	-0.045061287
217	0x3cd2f6a0	0.025752366
218	0xbdc22508	-0.094797194
219	0xbdf46650	-0.11933577
220	0x3d36fdc2	0.044675596
221	0x3db0fb19	0.08641643
222	0x3df09165	0.11746482
223	0xbc4f95ef	-0.012670024
224	0x3c9cbf79	0.01913427
225	0x3d469902	0.048485763
226	0x3c1ce1fb	0.009575362
227	0xbdcfb3ba	-0.10141702
228	0xbd4297b4	-0.047507957
229	0x3ca104f3	0.01965568
230	0xbd5c98f9	-0.053856824
231	0x3cf77b5a	0.030210186
232	0xbc99c1c7	-0.018769158
233	0x3d43956a	0.047749914
234	0xbdb33f5b	-0.087523185
235	0xbd626492	-0.055271693
236	0xbd8efa11	-0.0698129
237	0x3cc0262a	0.023455698
238	0x3d87ddcb	0.066341005
239	0x3b365e54	0.002782722
240	0xbd136e74	-0.03599401
241	0x3d41a6f3	0.047278356
242	0x3de09d6d	0.109675266
243	0xbd9bda0a	-0.07609947
244	0xbccc7f38	-0.024963006
245	0x3d260a7c	0.040537342
246	0xbce0b8f2	-0.027431939
247	0xbaa8251e	-0.0012828445
248	0xbd7d4eed	-0.061842848
249	0xbcbd1a43	-0.023083812
250	0xbd86fff9	-0.06591792
251	0xbd81718d	-0.06320486
252	0x3d36e540	0.044652224
253	0xbc6263b8	-0.01381772
254	0xbe2082cd	-0.15674897
255	0xbd545934	-0.051842883

hidden.4.bias f4 [128]
0	0xbceb774c	-0.028743409
1	0xbb9bd18f	-0.004755206
2	0x3cae1e0e	0.021254566
3	0x3ccc772e	0.024959173
4	0x3c921d40	0.017836213
5	0xbc564673	-0.01307832
6	0xbce75836	-0.028240304
7	0x3baa2e07	0.005193475
8	0x3c93e704	0.018054493
9	0x3ca0c35b	0.019624403
10	0x3c162b81	0.009165646
11	0xbcc140a2	-0.02359039
12	0xbd42bc99	-0.047543142
13	0x3c0f78e1	0.008756847
14	0x3cb70934	0.022343256
15	0x3d293a53	0.041315388
16	0x3cc4add1	0.024008663
17	0xbca84924	-0.020542689
18	0x3b4e4963	0.0031476847
19	0xbd1796d7	-0.037009086
20	0x3bd84902	0.0066005
21	0xbcef2cac	-0.029196106
22	0x3d223410	0.039600432
23	0xbd01994d	-0.03164034
24	0xbc9c3d06	-0.019072067
25	0x3ce0b60f	0.027430562
26	0x3c0d3dcc	0.008620691
27	0x3bbbd555	0.0057322183
28	0x3d07b8be	0.03313517
29	0x3ceda703	0.029010301
30	0xbce0c8c8	-0.02743949
31	0x3c6f85c9	0.014619299
32	0xbc650ff2	-0.013980852
33	0x3cc35c26	0.02384765
34	0x3be305e9	0.006928195
35	0xbd0479a5	-0.03234257
36	0x3d15a032	0.036529727
37	0x3c896377	0.016771061
38	0xbd0af234	-0.03392239
39	0xbcf14c9a	-0.029455472
40	0x3ba2c7e4	0.0049676765
41	0xbcc23f78	-0.023711905
42	0xbc0a1724	-0.008428369
43	0xbcdfdc8a	-0.02732684
44	0x3c371c3e	0.011176167
45	0xbca24775	-0.019809464
46	0x3c165933	0.00917654
47	0xbcd1f5d3	-0.025629913
48	0x3c7058ae	0.01466958
49	0xba9141c3	-0.0011082221
50	0xbd09c6b1	-0.033636753
51	0xbc14c2b7	-0.009079627
52	0xbc8efe91	-0.017455371
53	0x3cd35ff3	0.025802588
54	0x3cf85df6	0.030318242
55	0xbc83f39a	-0.01610737
56	0x3cc601b1	0.024170728
57	0xbc1185f0	-0.008882031
58	0xbc841efd	-0.016128058
59	0xbca5a5c1	-0.02022064
60	0x3cc20174	0.023682334
61	0xbcddcbc3	-0.0270747
62	0x3a955238	0.0011392301
63	0xbcfde7ca	-0.030994315
64	0x3cf6e0b2	0.03013644
65	0x3c7fa5bc	0.015603479
66	0x3bd807ee	0.006592742
67	0xbcbc7a5f	-0.02300757
68	0x3ab0e387	0.0013495543
69	0xbcbbbb4f	-0.022916464
70	0x3c64a8b3	0.013956237
71	0x3acce880	0.0015633255
72	0xbd413933	-0.04717369
73	0x3bd43c6e	0.0064769303
74	0x3ce355ac	0.027750812
75	0xbd831f23	-0.06402423
76	0x3c27846b	0.010224442
77	0xbc6d655e	-0.0144895
78	0xbd2556e7	-0.04036608
79	0x3d13129c	0.03590642
80	0xbd210f83	-0.039321434
81	0xbcf50027	-0.0299073
82	0x3c5aa429	0.013344803
83	0x3ca5ba13	0.020230329
84	0x3d2560a4	0.040375367
85	0xbce6c073	-0.028167939
86	0xbd4f8cdc	-0.050671443
87	0xbcfca8f4	-0.030842282
88	0x3c97505c	0.018470936
89	0x3c2ae224	0.010429893
90	0xbd274ebe	-0.04084658
91	0x3d1ce3ed	0.038303304
92	0x3c91b326	0.01778562
93	0xbc9ee3a6	-0.01939566
94	0x397aa709	0.00023904083
95	0xbd1a56a6	-0.03768029
96	0xbcea5dce	-0.028609183
97	0x3ba5baf1	0.0050576855
98	0xbc623eb6	-0.013808897
99	0xbcd3e172	-0.025864337
100	0x3c87825b	0.01654165
101	0x3c8cfbbb	0.017209878
102	0x3cde9800	0.027172089
103	0x3cd87abc	0.026425712
104	0xbc04a727	-0.008096493
105	0xbd19f8bc	-0.037590727
106	0x3d23e0a3	0.040009152
107	0x3cce3a4a	0.025174279
108	0x3c8d138c	0.017221235
109	0x3d06df37	0.032927718
110	0x3c97547f	0.018472908
111	0xbcdbac81	-0.026815655
112	0xbd1d2aa7	-0.038370755
113	0xbd137691	-0.036001746
114	0x3cbf7013	0.02336887
115	0x3cac169a	0.021006871
116	0xbcf3d486	-0.029764425
117	0x3ca44a45	0.020054946
118	0x3c64c2ac	0.013962429
119	0xbce5b815	-0.028041879
120	0xbbff6a75	-0.007794673
121	0x3a867ec3	0.0010261167
122	0xbc4a8cf2	-0.012362706
123	0xbd0bce15	-0.034132082
124	0x3cad79b6	0.0211762
125	0xbb686fa6	-0.0035466938
126	0x3bbe7cc4	0.005813213
127	0xbcdba982	-0.026814226
