models/NN_model.pth (torch, 722036 bytes, 18 tensors)

embd.weight f4 [127, 50]
000000 df 6e f4 3f 16 f8 be 3f 7f 67 63 3f 20 3a 05 c0
       1.9096335 1.491946 0.888298 -2.0816727
000010 be 02 20 3f eb 6e 9f bf ba 5f 20 3b 7e f4 d4 bf
       0.62504184 -1.2455724 0.002447112 -1.6637113
000020 82 85 37 bf 13 87 d0 3f 48 a3 c9 be d0 95 b4 bf
       -0.7168809 1.6291221 -0.39382386 -1.4108219
000030 30 63 49 bf 85 4f 13 bf 86 d2 43 bf f1 62 39 3f
       -0.78666973 -0.5754321 -0.7649311 0.724166
000040 d3 06 d0 3f 7e ae 35 be f7 80 fc be ca 8c fe 3e
       1.6252083 -0.17742345 -0.49317142 0.4971679
000050 54 74 43 bf bb e0 89 3f f4 c3 4a 3f da 31 d9 3f
       -0.7634938 1.0771707 0.7920525 1.6968338
000060 f4 8b a4 3f e2 7c a6 3f 6a 8d 1f 3f 18 ec a9 3f
       1.285521 1.3006861 0.62325156 1.3275175
000070 de 72 72 be 17 9a 31 3d 14 80 80 be e1 59 60 3f
       -0.23676631 0.043359842 -0.25097716 0.87637144
000080 3e 10 b0 bf b2 8e 5d bf e6 84 74 be fb 1a db 3f
       -1.3754957 -0.8654586 -0.23878822 1.7117609
000090 73 cc aa 3e db a2 d0 be 90 34 86 3e b0 e8 3f bf
       0.33359107 -0.4074925 0.26211977 -0.7496443
0000a0 00 0e c5 bf a3 81 7c 3f ab 5b 64 bf 6a c4 19 bf
       -1.5394897 0.9863531 -0.89202374 -0.6006533
0000b0 24 8a a4 bf c8 52 05 40 6c 5d 9f bf b7 07 fc be
       -1.2854657 2.0831776 -1.2450385 -0.49224636
0000c0 1a a4 65 bf af ba 24 bf 92 c9 9e 3d ff 75 0d 3f
       -0.89703524 -0.64347357 0.0775329 0.5525817
0000d0 e5 59 ef be 8a 1d 99 3f f0 55 4f bf 1b 36 35 bf
       -0.46748272 1.196214 -0.80990505 -0.70785683
0000e0 16 7d ab bf 26 35 a2 3c f6 87 51 bd 9e 68 2e 3f
       -1.3397548 0.019800734 -0.051155053 0.68128383
0000f0 57 43 0d be 40 70 e8 3f 7a 85 98 bf 73 eb b2 3f
       -0.1379522 1.8159256 -1.1915734 1.3978103
000100 f2 9d ba 3f 9d 6b 55 3f 27 f0 0e 40 31 71 02 3f
       1.4579451 0.8336733 2.2334077 0.50953966
000110 80 97 a8 3e 7c 68 35 be e9 82 88 bf 5e 80 a1 3f
       0.32928085 -0.17715639 -1.0664951 1.26173
000120 77 f0 44 be 43 ff 09 3f 48 50 8c 3d 71 10 e2 3e
       -0.19232355 0.53905123 0.0685125 0.4415317
000130 06 9b 10 3f e6 ed 25 bf 19 76 0b c0 b2 30 3c bf
       0.56486547 -0.6481613 -2.179083 -0.73511803
000140 a8 ff 05 bc f1 0a af be c2 ef ab bf 07 b5 1a bf
       -0.008178629 -0.34188035 -1.3432543 -0.60432476
000150 d8 6b 04 3f 29 b0 09 3f a7 35 90 3f 30 b7 44 3d
       0.51727057 0.53784424 1.1266373 0.048026264
000160 ee 8e 3a 3f ef ad ec be 86 9b 83 bf f5 dd 1d 3f
       0.72874343 -0.4622645 -1.0281837 0.61666805
000170 b2 89 d9 bf b8 68 5c bf 61 21 a9 3f 3c 39 f6 3e
       -1.6995146 -0.8609729 1.3213311 0.4809054
000180 fe 8d 1f c0 22 53 f0 3e 61 c7 4d 3f 1e a6 3b 3d
       -2.4930415 0.46938425 0.80382353 0.04581272
000190 3f 4a 24 3f 9d e2 24 3f 97 1b 8e 3f a4 48 d0 be
       0.6417579 0.64408284 1.110217 -0.4068042
0001a0 a6 be fa bd 5b 84 3f 3f 9c b2 cf 3e 68 00 48 3e
       -0.122433946 0.74811333 0.40565956 0.19531405
0001b0 ba f1 3f 3e 0f 7b a8 3f 0b 62 cf bc 2f ba af be
       0.18744555 1.3162555 -0.025315305 -0.34321734
0001c0 2b 8a b5 bf 05 de 49 bd 22 e6 0d bf ba 16 00 3f
       -1.418279 -0.049284 -0.5542928 0.5003468
0001d0 25 ed 43 3f 1e bc 83 3d 3f 96 d6 be a4 61 02 3f
       0.7653373 0.06432365 -0.41911504 0.5093024
0001e0 61 0f 45 bd a0 12 4b 3e e3 cf bf 3d 28 64 4d 3f
       -0.04811037 0.19831324 0.09365823 0.8023095
0001f0 f3 a2 91 3f 9b d4 c4 3e a1 70 2b 3f 16 e5 b8 3e
       1.1377853 0.38443455 0.66968733 0.3611228
000200 eb df fd 3f 3d c8 86 3f 61 c4 bc bf c2 4d 95 bf
       1.9833959 1.0529858 -1.474743 -1.1664355
000210 04 8f 6e be f6 cc c8 3f a5 9a 1e 3f 0e 28 1c 3f
       -0.23296744 1.5687549 0.6195472 0.6099862
000220 67 f8 8a 3f 2c 6c a7 bc 05 75 e2 bf c7 57 74 3f
       1.0857056 -0.020437323 -1.7691962 0.9544644
000230 71 c8 ad be 10 38 8a 3f 19 53 23 bf 9e e4 18 3f
       -0.33941987 1.0798359 -0.6379867 0.5972384
000240 aa c6 70 bf f4 89 80 3f af 38 ce 3f 19 a9 b3 3f
       -0.9405314 1.00421 1.6111048 1.403598
000250 36 32 9b 3e 36 fc 24 be 23 8a 3c bf cb 29 f8 3d
       0.30311745 -0.16111836 -0.7364828 0.121173464
000260 9d 2d ae 3e af a9 7d 3f 60 86 fb be 03 51 cc 3f
       0.34019175 0.9908704 -0.49125957 1.5962223
000270 5f 93 1d c0 34 ba 08 bf 35 e8 90 bf 6a 8b 4d 3f
       -2.4621198 -0.53409123 -1.1320864 0.80290854
000280 ac d1 f3 bf 86 05 49 3e 8c e4 b6 bd 83 06 b7 be
       -1.9048362 0.19631013 -0.089303106 -0.35747156
000290 b2 cf 91 3e 1f a9 42 bf dc 1a 3b 3e 71 8e 8d bf
       0.2847877 -0.7603931 0.18271965 -1.1059095
0002a0 59 e7 cc bf 66 75 ae 3f 0a 17 a5 3f 17 c2 34 3d
       -1.6008102 1.3629577 1.2897656 0.04413041
0002b0 97 06 c6 bf ad 20 46 3f 7b 90 48 3f ba 4b 01 40
       -1.5470761 0.7739361 0.7834546 2.020247
0002c0 a3 58 3d 3d ef 36 03 3e cb 37 51 bf 87 f8 5d be
       0.04622711 0.12813924 -0.8172576 -0.21676837
0002d0 27 0c 6c bf a9 62 c6 bf 41 5a 91 bf 89 66 03 bf
       -0.92206043 -1.5498859 -1.1355668 -0.5132833
0002e0 b4 62 08 bf 13 d5 be bf a9 d9 f5 bf 8e bd 13 3e
       -0.5327561 -1.4908775 -1.920705 0.14427778
0002f0 9c 14 79 3f f2 0f 09 bf fc c9 37 3f 40 8e 32 3f
       0.9729707 -0.53539956 0.7179258 0.69748306
000300 e4 88 e1 3f ff 8e 6d bf 2c dc 70 3f 52 db c3 be
       1.7619901 -0.9279632 0.94085956 -0.38253266
000310 7b 11 96 bf 27 a7 b7 3e b8 f7 f4 3e 39 6e ae 3f
       -1.1724085 0.35869715 0.47845244 1.3627387
000320 cf 1b ff 3e b6 f3 06 40 da 94 f6 be f6 62 65 bf
       0.49825904 2.108625 -0.4816044 -0.8960413
000330 61 76 80 3e 8a e8 87 3f c3 52 a6 3f da 91 d2 3e
       0.25090316 1.061784 1.2994007 0.411269
000340 38 c4 57 bf 4a fc 7f bf f0 d1 ff be 22 be 20 bf
       -0.8428378 -0.9999434 -0.49964857 -0.6279012
000350 06 5f 29 3e c1 3c f2 3e 6a 2b f9 bd 11 02 13 c0
       0.16540155 0.47311977 -0.12166484 -2.2970011
000360 0e 8c c5 be dc e4 86 3f 77 09 e5 bf 89 ca bd 3f
       -0.38583416 1.0538592 -1.7893513 1.4827434
000370 8b 27 94 3e 11 50 07 bf 6f 88 80 3f ff a0 d9 3f
       0.2893642 -0.52856547 1.0041636 1.7002257
000380 93 b8 15 3d 93 d2 d7 3f 75 09 eb 3d 3e 97 8c bf
       0.036552977 1.6861137 0.11476413 -1.0983655
000390 3e a4 0c bf a4 15 e7 3d c0 9e ba 3e 75 f6 fc 3f
       -0.54938114 0.112834245 0.36449242 1.9762713
0003a0 3b db e6 bd 02 d9 6c bf 11 ca 04 c0 fb 25 88 bf
       -0.11272284 -0.9251863 -2.0748332 -1.0636591
0003b0 60 4d 8a bc 55 75 22 3d 23 ea 4d 3e d8 48 db 3e
       -0.016882598 0.039662678 0.20108847 0.42829013
0003c0 88 83 69 bf 9a 35 9e 3e 46 d5 04 bf 28 b2 e9 3e
       -0.91216326 0.3090027 -0.5188793 0.45643735
0003d0 be d1 5e bf 73 10 8a 3b 77 ed b7 be 2d c1 b6 3f
       -0.8703879 0.0042133867 -0.3592336 1.4277703
0003e0 11 62 a2 3f 6a 11 2d bf 77 7d 56 3f 75 8e 08 3f
       1.2686177 -0.67604697 0.83785194 0.5334237
0003f0 89 0a 11 3f 41 a6 19 3f 05 52 04 3f 7c 25 62 3e
       0.566567 0.6001931 0.5168765 0.22084612

hidden.0.weight f4 [256, 162]
000000 73 e3 53 3d 81 c5 cc bc a0 65 47 3d f0 93 cf 3c
       0.051730584 -0.024996521 0.0486809 0.025339097
000010 c3 35 9c bd 30 0d 12 bd ea 45 15 bd d3 bb 66 bd
       -0.07627442 -0.035657108 -0.03644363 -0.056331467
000020 60 e4 71 bb e1 d7 be 3c 41 ca 3e bd cc 44 58 bc
       -0.0036909804 0.023296298 -0.046579603 -0.013199996
000030 f8 ff 93 bd 32 8a 90 3d 77 12 32 3d 78 9f 18 bd
       -0.072265565 0.07057609 0.04347464 -0.037261456
000040 42 6e 75 3d 46 56 7d bd b3 29 79 3d 8a d6 28 bd
       0.059919603 -0.061849855 0.060830783 -0.041220225
000050 20 2c 8f 3c 0a cb 27 3d e1 c7 02 3d 3d f5 95 3b
       0.017477095 0.040965118 0.0319289 0.004576354
000060 71 e1 b8 bc 72 a2 3e bc e9 1c 7d 3d 11 e1 da bc
       -0.022568436 -0.01163541 0.06179515 -0.026718648
000070 09 49 05 bd 6b 97 4f 3c fb 72 4b bd 9f b8 e1 bc
       -0.032540355 0.012670378 -0.0496702 -0.027553855
000080 32 9f fb bb ba 27 82 3d cb ce 22 3d 02 fc 3b bd
       -0.0076788897 0.063552335 0.039747994 -0.04589463
000090 80 34 34 3d b7 d4 19 bd 05 1d 86 3c a7 a2 48 bb
       0.04399538 -0.037556376 0.01637126 -0.0030614526
0000a0 64 4b 3f 3d e7 f0 fd bc 90 3c 1b bd a9 09 e0 bc
       0.046702757 -0.03099866 -0.037899554 -0.027348356
0000b0 61 82 79 bb 92 e8 4e bd 7d f9 4e 3d 75 00 6a bd
       -0.0038072097 -0.050514765 0.0505309 -0.057129342
0000c0 b7 35 68 3a 19 04 8e bd f4 59 3a bc f9 4b 72 bc
       0.0008858102 -0.06934375 -0.011373986 -0.014788621
0000d0 01 e2 14 bd 31 bb 33 3d 10 24 a5 bd 53 46 39 3c
       -0.036348347 0.04387969 -0.08063519 0.0113082705
0000e0 ef 96 ad bc b5 48 12 bd 86 6a 99 3d 3b f3 4e 3d
       -0.021190135 -0.03571387 0.07491021 0.05052493
0000f0 59 05 a7 3c ae 41 a1 bb 66 48 20 3d f2 4b 25 bd
       0.020388292 -0.0049211597 0.039131545 -0.04035563
000100 ae a1 93 bd 6f 02 81 3d c0 34 0f bd 81 8f a0 3b
       -0.07208572 0.06299292 -0.034962416 0.0048999195
000110 19 4b 95 bb ac ad 5c 3d d1 c8 95 3d f0 7a 8a bd
       -0.0045560715 0.053876564 0.07313693 -0.0676173
000120 1b b4 33 bc a4 4e 8e bd 8f c5 44 3d 00 1e 9e 3d
       -0.010968233 -0.06948593 0.04803997 0.07720566
000130 44 7a 10 bd fb 28 91 3c c4 ec e5 bc e8 0d 87 bc
       -0.03527285 0.017719736 -0.028067 -0.016486123
000140 ff 62 45 3d f7 81 84 bd bc 0d 53 3b 04 07 47 3b
       0.048190113 -0.06470101 0.0032204231 0.0030369172
000150 bb 82 95 bd 8c 36 ce 3c 2f b2 45 3d d2 cd 8b bd
       -0.073003255 0.025172494 0.048265632 -0.068263665
000160 56 2c b9 3c 2e 00 6b bc d4 75 8b 3d 0c 2d a8 bd
       0.022604149 -0.014343305 0.06809583 -0.08211717
000170 b2 61 78 3d b8 c3 19 bd 52 e4 79 3d 7b 58 43 bd
       0.060640045 -0.037540168 0.06100876 -0.047691803
000180 35 38 26 bb 3c 49 77 3b ff e6 e1 3c e8 04 8d 3c
       -0.0025363092 0.003773286 0.027575968 0.017214254
000190 9c 0d ef 3c ca 54 ec bc 75 30 ab bd c2 e2 70 bc
       0.029181294 -0.028849024 -0.08358852 -0.014702501
0001a0 da ca 63 3d 5a ba 5a 3d 53 a2 8f bd 91 3b 27 3d
       0.055613376 0.053400375 -0.07013383 0.04082829
0001b0 79 0e bd 3c f7 d4 e1 bc b1 e3 c5 3c a5 c4 ac bc
       0.02307819 -0.02756737 0.024156423 -0.021089861
0001c0 4c 15 a7 3b 64 65 1a bd 87 15 56 bc 99 4b ab 3d
       0.0050989743 -0.03769435 -0.013066656 0.083640285
0001d0 c6 17 25 3d c3 61 26 bd e4 76 57 bb 21 30 13 3d
       0.040305875 -0.040620577 -0.003287726 0.03593457
0001e0 87 8b dc bc 6d b2 dc bb 47 5c 03 3d 6a e3 8d 3d
       -0.026922 -0.006735137 0.032070424 0.069281414
0001f0 56 16 56 3d 0c 62 ae bd f5 42 87 bd 4f 7e 2f 3d
       0.052267395 -0.08514795 -0.06604568 0.042845067
000200 1d 99 10 bc c7 03 a1 3d bc 20 35 3d e3 bb 99 bc
       -0.008825568 0.078620486 0.04422067 -0.01876635
000210 31 5a 4e 3c 6a 24 d4 3c 82 51 a3 bc cc 65 af 3d
       0.0125947455 0.02589627 -0.019936327 0.08564338
000220 8f 2e a5 b8 ea a2 d8 bc a8 ac 84 bd 63 16 a2 3d
       -7.876485e-05 -0.026444871 -0.06478244 0.07914426
000230 08 2d a2 bd d6 35 46 3d 65 17 01 bd 25 78 6f bb
       -0.07918745 0.048391186 -0.03151645 -0.0036540118
000240 90 a4 1e 3b f0 1c 9e 3d a4 36 19 bd 77 37 59 bd
       0.0024206974 0.07720363 -0.037405625 -0.05303141
000250 fc c1 69 3d 91 ff 07 bd 58 21 1d bd e3 2a 40 3d
       0.057069764 -0.03320271 -0.038361877 0.0469159
000260 9d 4a aa bc 29 7f 39 3d 53 70 01 bd 02 48 54 3d
       -0.020787532 0.045287285 -0.03160126 0.051826485
000270 49 a9 99 3d cb 78 36 bb 72 83 7f bc 99 5b 4f 3d
       0.07502992 -0.0027842994 -0.015595304 0.050624464
000280 74 dd e9 3c c1 d3 a8 3b c2 49 9e 3d 54 6a 25 3b
       0.02854798 0.005152196 0.07728912 0.0025240378
000290 a0 ba e6 3c 7b 2c b5 bc c2 fc 4f bc 7d ff e3 39
       0.028165162 -0.022115937 -0.0126945395 0.00043487168
0002a0 e3 15 b0 3b 23 b3 16 3d 15 2b 69 3d 96 e8 40 3d
       0.005373703 0.03679193 0.05692585 0.04709681
0002b0 bb 16 07 bd e5 d3 94 3d c6 2a 33 3d 5d 2f 76 3c
       -0.03298066 0.07266978 0.043741964 0.015025941
0002c0 94 5c 61 bb 79 c6 6b bd ba d0 78 bd a1 c8 80 bc
       -0.0034387456 -0.057562325 -0.060745932 -0.015720667
0002d0 2d c5 91 bd ad 62 40 3c 93 aa 98 bd e1 b4 88 bd
       -0.071176864 0.011742276 -0.074544095 -0.06675125
0002e0 eb 7d 1e bd f8 d5 41 3d bb 39 73 3d 64 af 8a bd
       -0.038694303 0.047323197 0.059381228 -0.06771734
0002f0 0f 9a 58 bd a5 ff 83 3c 30 9e 91 bc 58 66 7f bd
       -0.052881297 0.016113112 -0.017775625 -0.062353462
000300 b4 83 99 3c 20 05 82 bd c3 ce 1a 3b 8e 63 01 3d
       0.018739559 -0.06348634 0.0023621775 0.031589083
000310 a3 ed 95 3d d1 24 88 bd 8f 94 47 3d 82 35 2e bb
       0.07320716 -0.06647647 0.04872566 -0.0026582186
000320 db ca 67 3d b2 ce 84 3d 72 5c 0c bd 3d 76 e6 bc
       0.056589942 0.064847365 -0.03426785 -0.028132552
000330 f5 48 03 bd 0c e3 3f 3d 4b 6b 20 bd 45 09 49 3d
       -0.032052 0.04684739 -0.039164823 0.049081106
000340 4f 55 db 3c 64 8a 8f 3d 71 e1 54 3d 0a a1 78 3d
       0.026774077 0.07008818 0.05197281 0.060700454
000350 b2 3d 8e bd 78 89 2e bd ed 52 75 bd 57 6b 25 3d
       -0.06945361 -0.04261157 -0.059893537 0.04038557
000360 bf b8 4f 3c 25 3d 02 3d 4e 76 df 3c 85 5f 99 3b
       0.012678324 0.031796593 0.027278092 0.0046805763
000370 d0 a5 fc 3c 21 2b 25 bd 18 7d 24 3d fb 40 a5 bd
       0.030840784 -0.040324334 0.04015836 -0.08069035
000380 23 0d ab bd 41 78 6d 3c 96 cb 72 3d 21 df 34 bd
       -0.08352115 0.014494003 0.059276186 -0.044158105
000390 d6 35 79 3d 82 7a 2e bd 8b 8a 85 bd 7a 11 7d bc
       0.060842358 -0.0425973 -0.065205656 -0.015446061
0003a0 50 83 19 3d 79 67 36 bd 30 25 8b 3d d4 28 25 bd
       0.037478745 -0.044532273 0.06794202 -0.04032214
0003b0 75 25 21 bd ca 0f 00 bd 56 74 82 bd 06 ff 98 3d
       -0.039342362 -0.031265058 -0.063698456 0.07470517
0003c0 ff 3c 40 bd e5 22 04 bd b3 27 cc bc eb df 87 3d
       -0.04693317 -0.03225984 -0.024921274 0.06634506
0003d0 d7 fb 18 3d 1c 70 f7 3c 8a 87 05 bd 74 ca d9 3c
       0.03734955 0.030204825 -0.032599963 0.026585795
0003e0 ea 61 29 3b ed fc 49 3d b8 8b 43 3b 25 8a 32 3d
       0.0025845715 0.049313474 0.0029837918 0.043588776
0003f0 90 cf 28 3d 69 89 4d 3b ee 18 a8 bd 3b df 89 3c
       0.041213572 0.003136242 -0.0820788 0.016830077

hidden.0.bias f4 [256]
000000 06 3e 78 bd 8e 51 42 bd 38 a8 88 bc c1 5f 4b 3d
       -0.060606025 -0.047441058 -0.016681775 0.049651865
000010 49 17 79 bd f5 dc 3d bd e8 d2 bc bc 71 e2 f4 bd
       -0.060813222 -0.0463533 -0.023049787 -0.11957253
000020 20 13 97 3d ab 1a 62 bd af 1c 7b bd a5 9d 9e bd
       0.07376695 -0.055201214 -0.06130665 -0.07744912
000030 5b d6 f4 3d 96 f5 c0 3d db db d0 3d 56 60 f4 bd
       0.119549476 0.09421842 0.10198184 -0.11932437
000040 2e e8 6e bd 7d 4f cc bd e7 02 04 bd 64 2d 6c 3d
       -0.058326893 -0.09976099 -0.03222933 0.057660475
000050 f7 a7 b7 bd 60 aa 3a bd bd 0f ba bc 19 5e 21 3d
       -0.089675836 -0.04557264 -0.022712583 0.03939638
000060 b5 8a ca 3c 8f 21 8b bc 36 32 41 3d ac 4f d6 3d
       0.024724344 -0.016983775 0.047167026 0.10464415
000070 54 2b b2 bd f4 39 a2 3d 56 ed e4 bd 79 25 20 bd
       -0.086996704 0.0792121 -0.11178081 -0.039098237
000080 8f 8c 33 3d 4f c8 d8 3c 03 ff 9f 3c b9 6a c5 bc
       0.04383522 0.026462702 0.019530779 -0.02409874
000090 5e f3 ac 3d 9c 23 3f bd b4 e5 0b bd c0 da 0b bd
       0.08444856 -0.04666482 -0.03415461 -0.034144163
0000a0 38 5b f7 bc f0 ff 7b bd ee 69 81 bd 34 b7 57 3d
       -0.030194864 -0.061523378 -0.063190326 0.05266495
0000b0 c8 71 5b bc 02 77 78 bd d9 13 c6 bd ea 35 db 3d
       -0.013393827 -0.06066037 -0.096717544 0.10703643
0000c0 47 92 f3 bd ee 98 ca 3d 2a 3d 4b bc 6b 85 a4 bd
       -0.118931346 0.0989245 -0.012404719 -0.0803326
0000d0 19 7e 69 bd 18 e3 c6 bd 4f 69 79 bc 79 ed ad 3c
       -0.05700502 -0.097112834 -0.015222861 0.0212314
0000e0 3e 27 5b 3c 76 d2 37 3d 1b c8 29 bb 26 b5 8c 3d
       0.013376055 0.044878446 -0.0025906626 0.06870489
0000f0 d5 18 17 bd fd c1 cd bd 00 b4 99 3d 92 d0 55 3c
       -0.036888916 -0.10046766 0.075050354 0.013050215
000100 a1 dc 8b 3c 4a 22 c4 3d 65 48 c2 bb 66 2d 81 bd
       0.017072977 0.095768526 -0.0059290403 -0.06307487
000110 34 33 c0 3d fe 9b be bc fa 05 b1 3d 04 a4 b7 bd
       0.09384766 -0.023267742 0.08643718 -0.089668304
000120 5c ff 0d bd 39 0d e5 bc c0 df 6e bd 3d 29 9c bd
       -0.034667358 -0.027960407 -0.058318853 -0.07625053
000130 70 a6 56 3d 0a ee da 3d 69 20 6b 3c d4 1e a9 3d
       0.05240482 0.106899336 0.014350989 0.08257833
000140 b8 1e c3 3d c4 ed 86 bd 58 b0 a4 3d e6 02 c7 bd
       0.095273435 -0.06588319 0.080414474 -0.0971735
000150 64 b0 bb 38 5f 1b d7 bc 9b b2 b2 bd ac 9d eb bd
       8.94971e-05 -0.026258169 -0.087254725 -0.11504683
000160 29 8f aa 3d dc 1f ea bc 38 4e dc bd e5 02 7c bd
       0.08328087 -0.028579645 -0.107571065 -0.061526198
000170 d5 7b d9 3d 42 2d 56 bd 05 dc ae bc bf e2 80 3c
       0.10619322 -0.052289255 -0.021345148 0.015733121
000180 5a 35 fe bc 01 cb f7 bc de 87 79 3d 5c 63 79 3c
       -0.0310313 -0.030248167 0.06092059 0.015221443
000190 46 54 de 3d e2 35 a7 3d 79 7a 84 bd a5 20 3f 3d
       0.10855918 0.08164574 -0.06468672 0.04666199
0001a0 64 dd 24 bc 87 ac 43 bd 1f 54 aa 3d 60 51 2b bd
       -0.010062549 -0.047771957 0.08316826 -0.041825652
0001b0 1f 32 66 bd e0 7c 21 bc 52 b8 a5 bc b2 2e 35 3d
       -0.056200143 -0.009856433 -0.020229492 0.044233985
0001c0 1f 5c 57 3d 02 0f 09 3d 9d 85 34 3d 35 2b 8d 3c
       0.052578088 0.03346158 0.044072736 0.017232517
0001d0 a8 5b c5 3d 59 f2 ce 3d 5a 69 cc 3d ec 5b 1c 3d
       0.09636623 0.10104818 0.09981032 0.0381736
0001e0 cb 60 a7 bd 83 f8 bf 3c d6 2e 25 bc b3 0b bf 3d
       -0.08172759 0.02343393 -0.010081967 0.09328403
0001f0 f0 3d bf bd be 63 c7 bd da 84 59 3d b2 a7 43 bd
       -0.093379855 -0.09735821 0.053105213 -0.04776735
000200 b8 b7 5d ba 84 76 0d bd 7b 46 59 3d 59 1c 97 bd
       -0.0008457857 -0.034536853 0.05304573 -0.07378454
000210 d6 1a 91 bd 03 93 a4 bd bf 86 d2 3c 7d a6 b1 bd
       -0.07085197 -0.08035853 0.025699018 -0.08674333
000220 12 9a e5 bd 9d dc 9f 3d 32 12 89 bd 56 79 e3 bc
       -0.11211027 0.078057505 -0.066929236 -0.027767818
000230 30 54 c9 bd b4 8a 42 3d ac d2 df bd 74 e5 e0 bd
       -0.098305106 0.04749556 -0.10928854 -0.10981265
000240 39 c7 8f 3d 0a 97 e5 bd 25 16 ae bd fd db 39 bd
       0.070204206 -0.11210449 -0.085003175 -0.045375813
000250 0b 25 60 bd 72 36 9c bd 53 5a e2 bc 34 05 74 bd
       -0.054722827 -0.07627572 -0.02763096 -0.059575275
000260 44 9e c7 3c bc 71 6c bd 9d 16 5e bb 0a be cc bc
       0.02436746 -0.057725653 -0.003388799 -0.024992961
000270 18 04 99 3b ca 31 aa bd 1c 76 aa bd ce bb 2b bd
       0.0046696775 -0.08310278 -0.08323309 -0.04192715
000280 f2 45 ac 3c a7 15 af bb d5 75 87 3c 8f 2d 68 3d
       0.021029446 -0.0053431573 0.016535679 0.056684073
000290 0e 39 80 3d 6e 7f 28 3b 21 64 90 bd 95 60 6e bd
       0.06260882 0.002571072 -0.07050348 -0.058197577
0002a0 1e d1 90 bd dc c8 e2 bd 11 d5 e4 3d b2 2b b7 bd
       -0.07071136 -0.11073467 0.11173452 -0.08943881
0002b0 e4 70 5a bc 5d 99 e0 3d 5a 80 aa bd b1 fb 9d bd
       -0.013332579 0.10966752 -0.08325262 -0.07714022
0002c0 90 d1 9e bd 64 23 b6 bd 53 c6 68 bd 28 17 42 bd
       -0.077548146 -0.08893469 -0.05682976 -0.047385365
0002d0 9a c3 d1 3c 62 64 4a bc 7b 1f 89 3d 0d f7 af bc
       0.025605965 -0.012353035 0.066954575 -0.021480108
0002e0 5e 6d 9b 3b 26 1c dd 3d ac f1 7d ba ff 1b c4 bd
       0.004743262 0.107963845 -0.0009687196 -0.09575652
0002f0 57 2b f0 bd 2c ea 3c bd aa 2d 2b bd 34 5e 78 bc
       -0.117270164 -0.04612176 -0.041791596 -0.0151591785
000300 48 d5 86 3a ab c0 08 bd 0f 06 f6 3d 24 af b2 bd
       0.0010286951 -0.033386867 0.12012874 -0.08724812
000310 aa 64 f9 3b 11 04 8f 3d a8 62 8c bd 98 30 02 bd
       0.007610877 0.069831975 -0.06854755 -0.031784624
000320 cd 2d b1 bd d2 c4 c5 bd ac 10 a0 3d 8b 4d 0a ba
       -0.08651314 -0.09656681 0.0781568 -0.0005275837
000330 e1 d5 c2 bc 70 e4 11 bd c8 37 ae 3d f2 0e 21 bd
       -0.023783626 -0.035618246 0.08506733 -0.039320894
000340 81 70 84 bd be fc ed bd e3 8c 14 3d f8 16 71 bd
       -0.06466771 -0.11620472 0.036267173 -0.058859795
000350 8a a9 1c 3d dc 15 b2 3d 7f 85 a2 bd 23 d6 99 bd
       0.038247623 0.086955756 -0.079356186 -0.075115465
000360 02 69 cd 3d 65 b6 98 3d ca fc ad bd cc cd a6 bc
       0.10029794 0.07456664 -0.08495481 -0.020361803
000370 04 60 4d bd 30 00 ce bd b8 8c db bd c7 3e 5c bc
       -0.050140396 -0.100586295 -0.10720199 -0.013442702
000380 97 a6 f1 bc b0 b8 bd bc 69 ea ab bd 49 bb 93 bd
       -0.029498382 -0.023159355 -0.083943196 -0.07213456
000390 9c 6a 82 3d d9 a9 0b bd ad a4 93 3d 26 b3 6f 3d
       0.063679904 -0.034097526 0.07209144 0.05852046
0003a0 08 bf 3f 3b 82 38 b2 bb 90 c4 9a 3c 8e 29 d8 3d
       0.002925815 -0.005438865 0.018892556 0.10554801
0003b0 7d 00 ba 3d 5d c2 07 bd f8 a8 b1 bd 8d 5d 2f 3c
       0.090821244 -0.033144344 -0.08674806 0.010703457
0003c0 dc c8 b0 bd fd 4f a2 bd 8e cf 94 bd cd 80 54 3d
       -0.08632061 -0.07925413 -0.072661504 0.051880646
0003d0 b6 1b 99 bd c1 31 3b 3c d9 39 ba 3c 56 55 95 bd
       -0.074759886 0.0114254365 0.022732662 -0.07291667
0003e0 24 d2 ae bd 87 e9 54 bc 2b 40 db bd 85 33 22 bc
       -0.08536175 -0.01299513 -0.107055984 -0.0098999785
0003f0 5f 1b 9d 3d 56 9b 24 3d 05 80 d6 3d d5 8e d9 bd
       0.07671236 0.040187202 0.104736365 -0.10622946

hidden.2.weight f4 [256, 256]
000000 da 49 3c bd b8 79 8c 3d 48 e5 5d bc 1e 2c 6b bc
       -0.045968868 0.068591535 -0.013543434 -0.01435378
000010 55 de be 3b c3 5e 32 3d fc 62 22 bd 65 d2 b0 bc
       0.005824844 0.043547403 -0.03964518 -0.021584699
000020 96 4d 4d 3c 5b 15 2a bc 02 66 ee bc 73 27 3a 3c
       0.012530705 -0.010381068 -0.029101375 0.0113619445
000030 78 83 39 3d 22 4f 09 3d 0e d3 cf bc 28 54 38 3d
       0.045291394 0.033522733 -0.025369193 0.045002133
000040 0f f4 be 3c a6 10 3a 3c 9f 19 62 3d 98 a4 5c bd
       0.023309736 0.011356508 0.055200215 -0.053867906
000050 12 69 e3 bc 49 68 7e bb ba b6 89 39 f3 f7 08 bc
       -0.027760062 -0.0038819483 0.00026266818 -0.008359897
000060 10 98 6b 3d 9a 34 46 bc 63 81 0e bd 78 f7 4a bd
       0.057518065 -0.012097502 -0.03479136 -0.04955241
000070 ff e9 b3 3d ab 02 77 bd 11 c1 97 3c 51 95 65 3c
       0.087848656 -0.06030528 0.018524678 0.014012651
000080 d8 36 32 3c e9 04 3d 3d 63 c1 e6 3b c6 79 59 3d
       0.010877334 0.04614726 0.0070420965 0.053094648
000090 44 d5 75 bd f1 55 29 3d ec d5 62 3d f8 85 9b 3c
       -0.06001784 0.041341726 0.055379793 0.01898478
0000a0 63 06 4e 3d 85 7d d5 bc 2e 1a 0e 3c 05 31 83 3d
       0.05029906 -0.026060829 0.008673234 0.06405834
0000b0 62 9d 04 3d 92 df 51 bd a9 92 a1 3c e0 8a 20 3d
       0.032376654 -0.051238604 0.019723253 0.03919494
0000c0 e3 4c 30 3d db 61 26 bc 09 4b 5c bc 7f 91 6f 3d
       0.043042075 -0.0101551665 -0.013445624 0.058488365
0000d0 7d 72 90 3d 3e 23 b8 bc bc 13 b7 bc 9a 8b 35 3d
       0.07053087 -0.022477742 -0.022348277 0.044322588
0000e0 5d 77 8d bc 71 72 f4 3c 6f 56 86 3d a9 56 73 bc
       -0.01726883 0.029839726 0.06559455 -0.014852204
0000f0 0c 0d 08 bd b3 30 06 3d bb a9 20 3d 37 2d 13 3d
       -0.033215567 0.032761287 0.039224368 0.035931792
000100 ee a3 5a 3d 17 47 07 3d 8f 61 ba 3c 90 9d 31 bd
       0.05337899 0.03302678 0.022751598 -0.043363154
000110 16 d7 32 3d 65 39 56 3d bb c1 a0 bd ae f2 2f 3d
       0.043662153 0.05230083 -0.07849451 0.042956047
000120 db 7e e6 bc 78 19 32 bd 07 91 b9 3c 9e 4e 6c 3d
       -0.028136661 -0.04348132 0.022652162 0.057692163
000130 b9 57 2e bd c7 55 ff 3c f4 93 76 bd 83 97 f3 bc
       -0.042564128 0.031168832 -0.060199693 -0.029735332
000140 10 14 fc bc c9 19 2f 3d 96 fb 82 3d 42 0c 14 bd
       -0.030771285 0.0427492 0.063956425 -0.036144502
000150 b9 62 8a 3c bc 49 40 bd 39 a2 d3 bc 82 d2 92 bc
       0.016892778 -0.04694532 -0.02583419 -0.017922644
000160 f5 75 4b 3d 11 fa 59 bd 4a 1f 4c 3d 9f 22 4a bd
       0.04967304 -0.053216998 0.049834527 -0.049349423
000170 c5 e8 12 3c cf 7f 80 bd cd 21 57 3d 48 43 07 3d
       0.008966629 -0.062743776 0.05252247 0.03302315
000180 3c 78 2f bd 36 07 63 3c 36 59 8a bd ef 0f 54 3d
       -0.042839274 0.0138567 -0.06755297 0.051773008
000190 79 ea 61 3d 41 59 90 ba 64 e6 7b ba 43 1e 39 3d
       0.05515525 -0.0011012928 -0.0009609221 0.045194875
0001a0 e0 1f 73 b7 67 95 5d 3b 14 32 2b bd cc 70 69 3d
       -1.449135e-05 0.0033810975 -0.041795805 0.056992337
0001b0 39 70 28 bd fc 77 56 b9 6b e8 5d 3d 3c cb 5e bd
       -0.04112265 -0.00020453328 0.05417673 -0.05439304
0001c0 c3 8d 2d ba 0b 48 bf bb 60 13 1f 3d 4d 40 72 bd
       -0.00066205504 -0.0058374456 0.038836837 -0.059143353
0001d0 74 8b 00 bd 12 12 5f bd 02 25 2d 3d 45 05 fb bc
       -0.031382993 -0.054460593 0.04227162 -0.030642161
0001e0 c6 91 72 bc 5e 23 28 bc dc ad 23 bc ca 14 36 bc
       -0.014805263 -0.010262338 -0.009990182 -0.011113355
0001f0 f6 d4 8b 3d df 2c f7 3c 89 47 c8 3c a6 82 6f bd
       0.068277285 0.030172763 0.024448173 -0.058474205
000200 4c 18 c1 3c 5f 0a cd 3c 4a a5 a1 3d 46 86 84 3d
       0.023571156 0.02502936 0.078928545 0.06470923
000210 59 29 06 bd 12 6b 54 3a f7 a8 ed bc 63 c5 1e bd
       -0.032754276 0.0008103113 -0.029011233 -0.03876246
000220 75 56 13 bd e3 1c d8 3c 7a cd 90 3d ba ab 0b 3c
       -0.035971124 0.026380962 0.070704415 0.0085248295
000230 17 ee 29 bd 91 a0 2e 3b 62 e2 bb bc b3 e1 c0 bc
       -0.041486826 0.0026645998 -0.022935096 -0.023545122
000240 49 ac 08 3d 5d 51 1f bb fa 85 97 3c ec 82 d3 bc
       0.03336743 -0.002430997 0.018496502 -0.025819264
000250 e2 fd 0b bc 8b 10 19 bd e8 ae 45 3d 85 a6 28 3d
       -0.008544417 -0.037369292 0.048262507 0.04117443
000260 ec 73 80 3c ba 85 6d 3d 97 d5 7a 3d 1c 2c e3 3c
       0.015680276 0.05798886 0.06123885 0.027730994
000270 76 58 63 bc d9 a2 64 3b 36 5d 62 bd bf 1a 0c 3d
       -0.013876071 0.0034887104 -0.055264674 0.034205195
000280 3e 41 0c 3d 96 81 85 bd 27 7e 52 bc 59 2f 3a 3d
       0.034241907 -0.06518857 -0.01284746 0.04545531
000290 33 0d 0a bd d4 51 61 3d 8e 5f c1 3b 59 f7 b4 bc
       -0.033703994 0.055009678 0.0059012836 -0.0220906
0002a0 f4 14 21 bd 67 36 aa bc 84 c4 84 ba 65 f4 77 bd
       -0.039326623 -0.020777894 -0.0010129367 -0.060535807
0002b0 b0 14 30 ba d4 4a 04 3d 8a 3e c4 bb c1 49 f1 bc
       -0.000671695 0.032297924 -0.0059889005 -0.029454114
0002c0 d0 13 37 bd 28 56 d9 bc 74 51 24 bd 36 ab 00 3c
       -0.04469663 -0.02653034 -0.040116742 0.00785332
0002d0 a7 32 0c 3d 38 9f 8f 3d 91 82 c8 bb 34 5e 41 bd
       0.034227993 0.070127904 -0.0061190804 -0.04720898
0002e0 a5 bc aa 3b a1 be 52 bd 8c 95 84 3d e5 b9 b0 3d
       0.0052104765 -0.05145133 0.06473836 0.086292066
0002f0 01 df d3 3c f7 d9 75 bc cd b1 d4 3c 5d 31 b3 bc
       0.025863172 -0.01500558 0.025963688 -0.021874124
000300 45 ff ce 3c c5 cd 9b bc ed 81 ca bc b1 6e dd bc
       0.025268206 -0.019019017 -0.024720157 -0.02703032
000310 41 f8 10 bd 47 f6 86 3d 52 b4 21 3c 72 04 5f bc
       -0.035393003 0.065899424 0.009869652 -0.0136119
000320 c3 2d 45 3d 94 05 11 bc cb 1f 81 bd 91 a5 5b 3d
       0.048139345 -0.008851428 -0.06304892 0.053624693
000330 20 7d 87 bc c4 7c 45 ba 2d 5a 6c 3d 37 f5 67 3c
       -0.016539156 -0.0007533545 0.057703186 0.014157585
000340 bd df 17 bd b2 2d e1 bc 73 0e 11 3c 20 a6 68 3c
       -0.037078608 -0.02748761 0.008853543 0.014199764
000350 40 9d c8 3c e8 45 0f 3d f8 40 4c 3d bd 1e 31 3d
       0.024489045 0.034978777 0.049866647 0.043242205
000360 d3 18 93 bd 39 6c 42 3d d2 e7 6e bd f6 c1 0d bd
       -0.07182469 0.04746649 -0.05832655 -0.034608804
000370 63 e5 2c bd b7 0b 12 bd 36 72 a4 3b d2 6f f9 3c
       -0.042210948 -0.035655703 0.005018498 0.030448828
000380 ca 7e e1 bc a1 47 1c 39 41 9b 38 bc f3 5a 40 bd
       -0.027526278 0.00014904003 -0.011267484 -0.046961736
000390 05 28 13 3a 8f c4 41 bd 47 c0 bf bc b1 83 8b bd
       0.00056135684 -0.047306594 -0.023407115 -0.068122275
0003a0 9a 9d 5b bd 2c 5a 40 3d 39 fd 54 bd 0d 70 4a 3d
       -0.053617097 0.046960995 -0.051999304 0.049423266
0003b0 9f fa 0f bd e0 cb 23 bd 80 bb 31 bd 6d 76 b2 bc
       -0.03515112 -0.039989352 -0.043391705 -0.021784985
0003c0 a6 65 0c bd 50 93 46 3d 5b 31 14 3d 47 69 bf 3b
       -0.034276627 0.048480332 0.03617988 0.0058414075
0003d0 4f 99 32 3d 7a 18 c2 3c 5d d7 6c 3c e9 d2 97 3d
       0.043603238 0.023693312 0.0144556435 0.07413275
0003e0 53 80 3a 3d 31 ee 65 bd cd 88 86 3d 91 90 5c 3d
       0.045532536 -0.05613536 0.065690614 0.053848807
0003f0 28 66 5e 3d 0b 47 af 3b f8 6a 31 3c 48 ee 58 bc
       0.054296643 0.005349045 0.010828726 -0.013240404

hidden.2.bias f4 [256]
000000 2c bc f0 bc 8a 54 14 bd 55 82 57 bc 22 df 6e bd
       -0.029386602 -0.036213435 -0.013153632 -0.058318265
000010 a8 67 98 bd ea 99 a9 bd 0a 67 29 bd 55 02 75 bd
       -0.07441646 -0.0828131 -0.04135803 -0.059816677
000020 e9 ed 62 3d 7d 6c e6 3b d9 e1 52 bd fb 17 9e bd
       0.05540267 0.007031976 -0.051484916 -0.07719418
000030 12 d7 87 bd 46 a9 16 3c 0d 19 b0 bd 92 fe cb bb
       -0.06632818 0.009195631 -0.08598528 -0.0062254155
000040 ec bc f9 bc c2 14 98 3d d4 b9 94 bd 30 e8 ec 3c
       -0.030485593 0.07425834 -0.072620064 0.02891931
000050 87 f1 bc 3c a4 00 b3 bd cf 4d 5d bd 7a e2 0d 3d
       0.023064388 -0.087403566 -0.054029282 0.034639813
000060 a3 e4 0d 3d c8 b6 49 bc 71 98 29 bd d7 74 4a 3c
       0.034641873 -0.012311645 -0.041405145 0.012356958
000070 92 2d 10 3c d1 61 bd 3a 10 f2 61 bc f0 1e b5 3d
       0.008799927 0.0014448707 -0.013790622 0.088437915
000080 b5 c5 a2 bd d8 ef c0 bd f1 84 91 bc 78 52 bb bc
       -0.07947866 -0.094207466 -0.017763587 -0.022866473
000090 26 88 27 bc 74 52 42 bd 12 22 9d 3c f7 3a 6f bb
       -0.010225331 -0.047441915 0.019181285 -0.0036503652
0000a0 e0 a9 8d bd a1 34 c6 bd 83 1e 98 bd ad 0d fa bb
       -0.06917167 -0.09678007 -0.07427695 -0.007631025
0000b0 1f 3e 2e bd a5 f8 6e 3d 25 32 fc bc ff 29 05 3d
       -0.042539712 0.058342595 -0.03078563 0.032510754
0000c0 04 41 76 bc 72 24 20 bd fe 5e b7 bd 22 b6 ff 39
       -0.015030149 -0.039097257 -0.08953665 0.0004877309
0000d0 67 8f 86 3d 0c b3 65 bd 95 b1 48 bb 7b 85 5a 3c
       0.065703206 -0.056078956 -0.0030623425 0.013337488
0000e0 7a f3 90 bd d3 9a d4 3c 0a 85 df bc 6c 80 b5 bd
       -0.070776895 0.025952732 -0.027285118 -0.08862385
0000f0 c1 2b e4 3c 42 c2 cd 3d e7 51 9a bc 35 46 e7 bc
       0.027852895 0.10046817 -0.018837882 -0.02823172
000100 3b 46 9d bc 36 c1 4a ba 50 f7 20 bd af c9 26 3d
       -0.019198528 -0.0007734479 -0.039298356 0.040719684
000110 45 6b 21 bd 1a 27 37 bd 62 99 92 3d c3 4e cb bc
       -0.03940894 -0.044715025 0.07158162 -0.02481783
000120 90 fd 76 3c 8f ff 82 3d 63 4d 37 bd 58 1c 84 3d
       0.015075102 0.063964 -0.044751536 0.06450719
000130 41 2e 81 bc a5 99 9b bd 39 ea e5 bc dd b0 27 3c
       -0.015769126 -0.07597665 -0.028065788 0.010235039
000140 6b be 0e bd 0a 1f 74 bd 0a a4 de 3b 12 04 e0 bc
       -0.034849565 -0.059599914 0.0067944573 -0.02734569
000150 28 70 1f bd ee fd 9d bd cb d0 8c 3b 00 7f 64 bd
       -0.03892532 -0.07714449 0.004297351 -0.05578518
000160 98 94 44 bd 17 85 64 3c 22 56 8b bd f7 e2 03 3d
       -0.047993273 0.013947747 -0.06803538 0.032198872
000170 89 45 47 bd 11 29 e6 bb 08 73 94 bd 5c 31 6c 3a
       -0.0486503 -0.0070239385 -0.07248503 0.00090100407
000180 9d e3 a3 3d 36 bd 6f bd 43 d2 d9 3b 6f 5a a6 bd
       0.08002398 -0.058530055 0.0066473796 -0.081227176
000190 a2 1a 1e 3b 24 44 84 bd 3c 96 3e 3b b7 53 c2 bd
       0.002412476 -0.06458309 0.0029081246 -0.094886236
0001a0 7c 8c 46 3d 69 dd 88 3a c7 c7 b6 bd fe 6c 54 bd
       0.04847382 0.0010441962 -0.08924823 -0.051861756
0001b0 0a f9 45 bd cb 22 6f bc d5 2b 91 bd 19 bf bc 3c
       -0.048333205 -0.014595698 -0.070884384 0.023040341
0001c0 bb 5f 42 bb 92 41 3e 3c 0b c9 7d bd 05 fc 62 bb
       -0.002965911 0.011612313 -0.061959308 -0.0034635079
0001d0 40 d5 a7 bd fb c4 1e bd 18 fd 77 3d b1 c5 70 3b
       -0.08194971 -0.038762074 0.060544103 0.0036738927
0001e0 97 5a 6d 3c 1c 0a 55 3d 9b a8 82 bd 8e 47 b0 bd
       0.01448693 0.052011594 -0.06379815 -0.08607398
0001f0 e6 db 5a 3c b7 0f 7e bd 02 d2 07 3d 45 8a 86 bc
       0.013358092 -0.062026706 0.033159263 -0.016423354
000200 60 59 66 3d 3c 64 86 bc e7 f8 6a 3d ed de 83 3d
       0.05623758 -0.016405217 0.057366278 0.06439004
000210 f5 03 8c bd 75 1b 47 bd ae 58 1b ba c6 df 40 bd
       -0.06836692 -0.04861017 -0.0005925995 -0.047088407
000220 6b 51 41 bd 32 cc af bd 83 b3 49 3d b9 5a e9 3c
       -0.047196787 -0.08583869 0.04924346 0.028485643
000230 eb 43 b4 bd 22 6c b9 3d c5 40 1c bc ff c2 e3 3c
       -0.08802017 0.09053828 -0.009536927 0.027802942
000240 31 f7 58 bc 37 7f 1a 3d 59 5d 96 bd b8 10 28 bd
       -0.013242529 0.037718978 -0.073420234 -0.04103157
000250 7e 10 3d 3d d4 b2 e6 bc 5b 8f 76 bd a7 eb d8 bb
       0.046158306 -0.028161444 -0.06019531 -0.006619889
000260 15 aa f1 3c aa ea 5c bd ba 88 e6 3c aa f4 69 3d
       0.029500047 -0.05393473 0.028141368 0.057118095
000270 2e 18 56 bd b7 21 9f bc f1 f1 8c bd 1e 5c 55 bc
       -0.052269153 -0.019425256 -0.06882084 -0.013022451
000280 8b fd 45 bd 22 07 50 bd 1b 93 cb 3d 9d 90 1d 3d
       -0.0483375 -0.050788052 0.099401675 0.038467992
000290 86 6b 0b bc f4 50 9e bd 51 8b 37 3d 00 e2 d9 bb
       -0.008509522 -0.07730284 0.044810597 -0.0066492558
0002a0 c6 9d a0 3c 2d 29 4b 3d 55 d8 05 bc e0 6f c9 3c
       0.019606482 0.049599815 -0.008169253 0.024589479
0002b0 2a ab 7b bd 63 d8 bd bd 70 1c cd bd d6 55 6f 3d
       -0.06144253 -0.09269788 -0.1001519 0.05843147
0002c0 bf 42 9e bb 95 39 a0 bd 43 c3 a1 bd 2e ca 96 bc
       -0.004829734 -0.07823483 -0.07898571 -0.018406954
0002d0 17 1b 74 bb 29 35 08 bd 12 f4 85 bc 5d 5a 41 3d
       -0.0037247592 -0.033253822 -0.016351733 0.047205318
0002e0 30 3e a3 3d 4e f5 86 3d b9 89 4c 3d ee 5e 56 bd
       0.07970846 0.06589757 0.04993603 -0.052336626
0002f0 1d d9 a7 bc b3 9c 92 bc 4a e6 79 3c 3c 79 b8 bd
       -0.02048927 -0.017896986 0.015252659 -0.090074986
000300 42 aa ef bc 0b 2d f4 bc 70 3e f7 bc ce 45 1d bd
       -0.02925599 -0.029806634 -0.03018114 -0.03839665
000310 c6 8c 9e 3d 6a 58 14 bd f7 25 3d 3d 3a 0f 5c bc
       0.07741694 -0.03621713 0.046178784 -0.013431365
000320 37 74 42 bd 76 a0 bb bd fe b0 fc 3c cc c2 bf 3c
       -0.047474112 -0.09161465 0.030846115 0.023408316
000330 ae ee 6f bd 0f 84 9d 3c c3 0d bd bd 00 1e 6a bd
       -0.058577232 0.01922801 -0.092311405 -0.057157516
000340 b7 33 ac bc c8 bf ad bd 45 c4 15 bd db 22 d1 bd
       -0.021020753 -0.08483845 -0.03656413 -0.10211726
000350 9c 2d c6 3d 1e b4 c0 3d fe f5 1c 3d 5f c1 20 bc
       0.09676668 0.094093546 0.038320534 -0.009811728
000360 b0 eb 0b bc 86 35 c1 ba 0b 95 b2 bd 0a db 4e bc
       -0.008540079 -0.0014740683 -0.08719834 -0.012625465
000370 8e a2 25 3d f8 ac ce bc ab e6 e0 bc 4f 08 b3 3d
       0.040438227 -0.025228962 -0.027453741 0.08741819
000380 ca 50 84 bd c0 d5 09 bd 5e 7e 92 3d 0d 88 b8 3d
       -0.06460722 -0.033651114 0.07153009 0.090103246
000390 30 6a 09 bd 75 4c b0 3d e1 50 02 bd ba b1 8d 3d
       -0.033548534 0.08608333 -0.031815413 0.06918664
0003a0 e2 e7 4e 3d a4 7d 12 bd b3 1e b4 3d 9d 4b 88 bd
       0.05051411 -0.03576435 0.08794918 -0.06655047
0003b0 b3 10 e3 bc 99 b5 a4 3d 4d b6 37 3d 7e 69 5e bd
       -0.027717924 0.080424495 0.04485159 -0.054299824
0003c0 e2 f4 00 bd b1 d1 a1 bc 1a 87 2a bd ac ce 8c 3d
       -0.03148354 -0.019753309 -0.04163275 0.06875357
0003d0 9a 17 8e 3d b1 7a e6 bc ea 79 a8 3b 33 ad 1a 3d
       0.069380954 -0.028134676 0.0051414864 0.037762832
0003e0 b8 4e bb 3c 8c 93 35 3c 3c 4d 86 3c 84 fe 06 3d
       0.022864684 0.011082541 0.01639425 0.03295757
0003f0 47 91 d7 bb 97 1f 97 bd 78 24 ee 3c 02 a2 1a 38
       -0.0065785977 -0.07379072 0.029070124 3.6867343e-05

hidden.4.weight f4 [128, 256]
000000 37 aa 12 3d 74 f3 2b bd b5 b3 5c 3d 19 b3 1b bd
       0.03580686 -0.041980222 0.05388232 -0.038012598
000010 79 91 0b bd b7 dd 51 bc 31 f0 f6 b9 75 77 68 3d
       -0.03407428 -0.012809209 -0.00047099733 0.056754548
000020 67 dc c3 3c fc e7 5b 3d 69 09 ba 3c ec 59 42 3c
       0.023908807 0.053688034 0.022709565 0.011862259
000030 1e 3a 26 bd 6a 87 90 3d 78 8a 88 bc 3b a9 2f bd
       -0.04058277 0.07057078 -0.01666759 -0.042886
000040 48 44 63 3d aa 66 fe bc e7 49 c7 3c 23 da d1 bc
       0.05548504 -0.031054813 0.024327232 -0.025616711
000050 40 4d 0b bd 3b 0b 18 3d 6c 12 30 3d 1c d6 78 bc
       -0.03400922 0.037120085 0.04298632 -0.015187766
000060 54 87 9c bc d5 f1 06 3d 47 b5 b2 bc ca 00 88 bc
       -0.019107498 0.032945473 -0.021814955 -0.016601939
000070 a9 ec 3c 3c ee ae 3c 3d 28 bf d7 bc dd 68 2c bc
       0.011531034 0.046065263 -0.026336268 -0.010523048
000080 77 1f b7 bc b2 2f 3c bc 3c bb 17 bc 37 b4 5d 3d
       -0.02235387 -0.011485981 -0.009260949 0.054126944
000090 e2 22 6b 3c bc e0 52 3d 3e fd 70 3d a1 f6 91 3d
       0.014351578 0.051483855 0.05883526 0.07127119
0000a0 9c 19 15 3c 02 7d 77 3d 8e 11 5b bd cb ee 62 bd
       0.009100344 0.06042195 -0.05348354 -0.055403512
0000b0 5a 77 56 bd 56 c2 45 bb 5e b6 f3 bc d9 01 cc 3c
       -0.052359916 -0.0030175648 -0.029750045 0.024903225
0000c0 25 e0 c5 bc 55 62 a4 ba a9 46 89 bc cd 85 15 bd
       -0.024154732 -0.0012541512 -0.016757326 -0.036504555
0000d0 39 35 67 3d 37 fd 2d bd 14 b9 d2 3a f4 48 b0 3c
       0.05644724 -0.042477813 0.0016076886 0.021519162
0000e0 25 90 58 3d aa 9b 04 3d e0 02 5a 3b 8b 70 c2 bc
       0.052871842 0.032375015 0.0033265874 -0.023735305
0000f0 3f bf 4e 3d 06 19 83 bd ca 27 4c 3d 50 b9 94 bc
       0.050475355 -0.06401257 0.049842633 -0.01815477
000100 1d 59 2f 3d b5 2e f1 bc d1 4d 5c bc 15 42 32 3d
       0.042809594 -0.029441217 -0.013446287 0.043520052
000110 98 dd 9d bc e8 c7 a3 3c 72 03 52 bc fc 98 fd 3c
       -0.019270703 0.019992784 -0.012818204 0.030956738
000120 9d 77 2f 3c db 4c ee bc 77 97 38 bd b7 23 0f bd
       0.01070967 -0.029089382 -0.045066323 -0.03494617
000130 6a d5 d4 3b 0e d5 d5 3c e3 5d f2 3c f5 3d b7 bc
       0.0064951675 0.026102569 0.029585784 -0.02236841
000140 64 4e 0f 3c 8e e9 a6 bc 04 1a ed 3b fb f6 40 3d
       0.008746717 -0.02037504 0.0072357673 0.04711054
000150 5f 99 d3 bb 42 6c 58 3d a0 90 60 3d 67 c2 dc 3c
       -0.0064574922 0.052837618 0.054825425 0.026948167
000160 b7 85 b8 3c 37 e2 a5 3c ca 5f 0b bd f3 fc 0d 3d
       0.022524698 0.02024947 -0.0340269 0.03466506
000170 ab b7 3b 3a 89 15 53 3c 9f c1 41 3d 47 22 30 bd
       0.00071608525 0.012883552 0.047303792 -0.04300144
000180 dd b2 2a 3d 40 68 43 bd 65 af 38 3d b2 ed d6 37
       0.041674484 -0.047706842 0.045089144 2.5621473e-05
000190 0c c5 9d bb 33 1a 62 3d f2 50 62 bd 65 f9 dd 3b
       -0.0048147496 0.055200767 -0.055252977 0.006774115
0001a0 95 98 96 3c a6 2d 1d bd fb 04 27 bd 45 67 1a bc
       0.018383304 -0.038373612 -0.040776234 -0.009424035
0001b0 dd 67 93 bb e4 13 1f 3d f7 a4 d2 38 53 d3 9d 3c
       -0.0044984655 0.03883733 0.000100443074 0.019265806
0001c0 e5 de 05 bd f5 e5 64 bd 59 e5 fd 3c 18 0f f6 bc
       -0.032683272 -0.055883367 0.03099315 -0.030036494
0001d0 6b 60 94 bb 73 fe 1f bd c2 1e 33 3d f0 9b 3b 3d
       -0.0045280955 -0.03906102 0.043730505 0.04580301
0001e0 5f 51 86 bd 0a 2c 0b bd d1 35 46 3d c0 83 84 3c
       -0.06558489 -0.033977546 0.048391167 0.016176105
0001f0 0f a8 c9 bc 6b b1 a6 3c 14 78 e6 3b 89 99 51 3d
       -0.02461627 0.020348271 0.0070333574 0.051171813
000200 d6 db 70 bc 29 4e af 3c 86 02 af bc ed 9b 38 3c
       -0.0147008505 0.021399574 -0.021363508 0.011267644
000210 9d 6c 8f 3c 65 87 5b bc 3e 1b f2 3c cd 56 d6 bc
       0.017507846 -0.01339898 0.029554006 -0.026164437
000220 fa a1 23 3d cc bc 4b 3d 13 f5 89 3c 08 6b 8b bc
       0.039949395 0.049740598 0.016840493 -0.01701881
000230 1e b2 5d bd 7d aa 76 bd bc e6 8e 3c 85 57 c3 3c
       -0.054124944 -0.060221184 0.017444007 0.023845444
000240 f7 ae 26 bd 94 f1 39 3d b1 15 08 bd c1 89 05 3d
       -0.040694203 0.045396402 -0.03322381 0.032602075
000250 50 94 a6 bc 92 f2 5e bd e7 47 2f 3c c7 84 ab 3c
       -0.020334393 -0.05443055 0.010698295 0.020937337
000260 0c 1b c1 3c 45 d7 7c 3d 04 53 a6 3d 74 da b0 bc
       0.023572467 0.061728735 0.08121303 -0.021588542
000270 89 09 7a 3d bd a4 f3 3c d8 1a 06 3d 4a 9d 18 bd
       0.06104425 0.02974164 0.032740444 -0.037259378
000280 25 9f ce bb 38 dc 45 bd 13 1a 34 bd bb 08 60 3d
       -0.0063055926 -0.04830572 -0.04397018 0.054695826
000290 5a 61 89 bc c5 0b cb 3c 74 b8 6b ba a1 f8 15 bd
       -0.016770054 0.024785886 -0.0008992024 -0.036614064
0002a0 46 a0 8c bd 3d 41 ee bc ad f4 09 bd c6 d9 c4 3c
       -0.06866507 -0.029083842 -0.033680607 0.024029624
0002b0 df b1 a7 3c c1 a2 b1 bc ef 88 9e bc 2a 95 c2 bc
       0.020470558 -0.021684052 -0.019352404 -0.023752768
0002c0 6f 5c 83 bd 22 44 14 3d c3 67 06 bd 28 7b 2e bc
       -0.06414115 0.03619779 -0.0328138 -0.01064948
0002d0 31 32 f5 bc 20 45 fa bc bf 18 bf bc 87 77 5a 3d
       -0.02993116 -0.03055054 -0.02332723 0.053336646
0002e0 be 3b b2 bc 2e a9 63 bc ae 49 2e 3c 41 3d 96 3d
       -0.021757003 -0.013895316 0.010637684 0.07335902
0002f0 f1 66 5c bd 14 4c be bc 66 90 15 bd 60 89 3d bd
       -0.05380911 -0.023229636 -0.036514662 -0.04627359
000300 3e 9d 12 bd 65 f2 f0 bc a9 0c ee 3c 28 f0 70 3c
       -0.03579449 -0.029412458 0.029058771 0.014705695
000310 f4 a3 91 3c da 5e c9 bc 21 b5 c4 bc dc 6c e6 bc
       0.017778374 -0.024581362 -0.02401215 -0.02812808
000320 85 67 c6 bb 8c 27 0a bd 0b 6d 78 3d 04 ef e9 3b
       -0.006054821 -0.03372912 0.060650866 0.0071390886
000330 19 d7 e0 bc 4b 59 5e 3d 44 05 7d 3d 00 35 96 3c
       -0.027446317 0.054284375 0.0617726 0.01833582
000340 3a 08 41 3d e0 d1 69 3d 64 4a 14 bc 7e 1f 9f 3d
       0.047126986 0.057084918 -0.009050939 0.077696785
000350 5c 18 af bc a7 c8 4b bd 26 7d c2 bb 0e fa a4 3c
       -0.02137392 -0.049751904 -0.005935329 0.020138767
000360 f6 7b 44 3d c2 22 b8 3c 26 ef 75 3c 9d 19 af 3b
       0.04796978 0.022477511 0.015010631 0.0053436295
000370 5e eb 86 3c 28 50 fe 3b f9 b4 09 bd 44 04 5e 3d
       0.016469654 0.00776102 -0.033619855 0.054203287
000380 3e eb 40 bd 2f ee e6 bc 3d 31 2d 3d 7d 38 59 3d
       -0.047099344 -0.028189747 0.042283285 0.053032387
000390 a8 74 f0 bc 0d 0d 15 bd de ad 46 3d 7c 16 eb bc
       -0.029352501 -0.0363894 0.048505656 -0.028697245
0003a0 e4 8f 2c bd 30 6f 80 bd 8b b4 86 3d a6 68 04 bd
       -0.042129412 -0.06271207 0.065774046 -0.032326363
0003b0 b9 b9 1f 3d 89 ae 85 bc 98 27 56 3d b3 a4 5a ba
       0.03899548 -0.016318576 0.052283853 -0.0008340582
0003c0 16 04 ea 3c b6 f2 10 bd 75 a4 10 bd bb f9 3a bd
       0.028566401 -0.035387717 -0.03531309 -0.045648318
0003d0 88 c0 92 3c d0 ee 1e bd 95 08 53 bd e4 d0 5b bd
       0.017914072 -0.038801968 -0.051521856 -0.05366601
0003e0 88 50 6c bd 00 8c 53 3d 87 2f 87 bc ee 4e c5 3c
       -0.057693988 0.051647186 -0.016502155 0.024085488
0003f0 75 09 0f 3d 50 a8 1b bd e0 f9 19 3d 74 c9 8d bc
       0.03492113 -0.038002312 0.037591815 -0.017307974

hidden.4.bias f4 [128]
000000 b9 2e 9d bd 15 47 de 3c 02 01 fd 3b 34 ca cb 3c
       -0.07674927 0.027133504 0.0077210674 0.024876691
000010 e1 d1 5d 3d 85 d8 92 3d bf 7c f1 3c 2a 60 03 3d
       0.054155234 0.07170204 0.029478429 0.03207413
000020 eb 0d 1d 3d 73 ba 0a bd 94 65 35 bd c2 66 67 3d
       0.03834335 -0.033869218 -0.044286326 0.05649448
000030 ba 75 19 3c a1 27 88 bd e6 cb 9f 3c 5a 79 89 3d
       0.009366447 -0.066481836 0.019506406 0.06712599
000040 bf 74 b3 bd ed 18 19 bd eb f6 05 3d 55 22 96 bd
       -0.08762502 -0.037377287 0.032706182 -0.07330767
000050 27 52 ec bb f6 97 8a 3d 94 e6 5c bc 40 6e 0f bd
       -0.0072119418 0.067672655 -0.0134827085 -0.035017252
000060 87 0b c5 3c 44 01 90 3d 44 30 9d 3d e0 0c a5 bd
       0.024053348 0.070314914 0.076752216 -0.08059096
000070 c7 ba 2a bb 57 71 cb bc 70 2c ab bd 81 9b 87 3d
       -0.002605127 -0.024834318 -0.08358085 0.06621457
000080 b6 0f 69 3a e8 ff 50 3d 9f de e3 bc 90 ea a4 bd
       0.0008890586 0.0510253 -0.027816115 -0.08052552
000090 9f 46 b8 3c 38 be d6 bb 0b 2b bb 3b b4 a0 31 3d
       0.022494612 -0.0065534376 0.005711918 0.04336615
0000a0 f7 53 9c 3d d4 fb 81 bd d1 f7 97 bc 55 22 3f bd
       0.076332025 -0.063468605 -0.018550785 -0.0466636
0000b0 c0 d9 49 bd 4d e8 ab bd 35 36 7a bb aa 9d 49 3c
       -0.04927993 -0.08393917 -0.0038179283 0.012305656
0000c0 65 e7 35 3c 19 10 b8 bc ca 89 e0 bc 2a 6b 8a 3c
       0.011102532 -0.022468613 -0.027409453 0.016896803
0000d0 27 ec c0 3c 9b 6f a8 3c a7 9d 1a bd 4b 4d 9c 3c
       0.023550106 0.02056103 -0.037748005 0.019079825
0000e0 3f 72 02 bd da 21 7b 3d b4 53 b1 3d 15 af 02 3d
       -0.031847235 0.06131158 0.08658543 0.031905252
0000f0 df 1c 94 bd 7a fe 20 3c 7c 4b 8a bd b7 7e 90 3c
       -0.07232069 0.009826297 -0.06752679 0.017638547
000100 79 f5 a8 bc 2b 74 d9 3c 02 eb 66 bd 02 50 8c bd
       -0.020624863 0.026544651 -0.056376465 -0.06851198
000110 4a b4 c7 bd b1 c0 75 bc 3b ae 98 3d cb 09 a9 3b
       -0.09751184 -0.0149995545 0.07455107 0.005158638
000120 56 26 14 bd 20 fc 4a 3d 88 95 91 3c a7 f2 c2 3c
       -0.036169372 0.04955685 0.017771497 0.023797346
000130 e4 4f e7 3b ed 42 a7 bd 46 67 1d 3c df 33 aa bd
       0.0070590843 -0.08167062 0.009607142 -0.08310675
000140 aa c2 38 3d 6c 28 d4 3c 68 57 8e bc 97 f1 75 bd
       0.04510752 0.02589818 -0.017375663 -0.06004485
000150 8f 51 5c 3d d0 a8 3f bd 17 03 da bb 22 44 cb 3c
       0.053788718 -0.04679185 -0.0066532004 0.024812762
000160 7b 3a 70 bd 55 30 16 bc 98 ca 35 bc c5 41 a1 bd
       -0.05864952 -0.009166797 -0.011095665 -0.07873873
000170 77 bd 93 3c fc a8 57 bc 73 db e4 3c 36 34 98 3c
       0.01803468 -0.013162848 0.027936673 0.018579584
000180 8e 6f ae bd 02 c3 e1 3c 15 6d 3b 3c a2 1a 25 3c
       -0.08517371 0.027558807 0.011439581 0.010077151
000190 85 2a 9f 3d 34 58 bc 3a 10 65 b7 3c 36 1f a6 bd
       0.07771782 0.0014369548 0.022387058 -0.08111422
0001a0 a1 56 1b bb 00 94 d8 3c 8b 55 a5 3c 17 34 9c bc
       -0.0023702758 0.02643776 0.020182392 -0.019067807
0001b0 d5 51 2a 3b 90 50 00 3a de 9d 1a 3d 09 4d 52 bd
       0.0025988717 0.0004894817 0.03774821 -0.051342998
0001c0 4e b9 94 bc e5 5f 3b bc 38 46 f8 bc 22 97 9d b8
       -0.018154766 -0.011436437 -0.03030692 -7.514494e-05
0001d0 4d 11 6e 3d e2 d7 9b 3d d6 f3 f0 3c ab 0f e9 3c
       0.058121968 0.07609536 0.029413145 0.028449854
0001e0 25 07 57 bc 2f 70 0c 3d cc 1f 40 3d 87 ce 1a 3d
       -0.013124262 0.034286674 0.046905324 0.037794616
0001f0 63 76 c7 bd 07 3c 99 bd 44 08 a1 3b be 41 bc bc
       -0.09739377 -0.074821524 0.0049143154 -0.022980567
